model2_20250707_152214_best.pth (torch, 20944 bytes, 9 tensors)

fc1.weight f4 [64, 19]
0.11869308 -0.137725 -0.17967193 -0.19286573 0.08529358 -0.24824448 -0.0060353694 -0.064220056
0.34631416 0.23268694 -0.091982305 -0.0053062267 -0.29786557 0.285166 0.084387854 0.16502683
0.12522809 0.28553465 0.025540087 0.12368278 0.38651904 -0.02978392 0.0871783 -0.20190105
0.30949202 -0.09733808 -0.22050378 -0.0699765 0.18127435 -0.09853385 0.05633193 0.09510018
-0.030177144 -0.032938067 -0.17842826 0.027557561 -0.18982385 -0.024449633 0.06541226 0.07271926
-0.14252707 0.05090555 -0.17792998 0.006286585 0.010131127 0.14987582 -0.05979449 -0.3239795
0.13845699 -0.07709907 0.10392028 -0.261457 0.310266 -0.25318077 0.068197876 -0.12767477
0.107998066 0.15541042 0.069796346 0.14122158 -0.14574452 0.0029689309 0.020457942 -0.14933789
-0.021287216 0.31619367 0.17268735 -0.1768222 -0.18380305 0.1922894 0.30314502 -0.09336813
-0.07735913 -0.08934763 0.031234717 -0.20174362 -0.08942309 -0.07930267 0.025068317 -0.0231161
0.13974637 -0.12649424 0.18677662 0.16884491 0.087035924 -0.14401112 -0.044438157 0.008733042
-0.026768545 -0.01794816 0.11785425 -0.0723931 -0.19385208 -0.19864602 0.055684578 0.15647179
-0.1548275 -0.10317767 -0.23508774 0.13329133 0.022593707 0.07070318 0.011172704 0.22435018
0.1558668 -0.23138562 -0.03880733 0.1518906 -0.071763426 -0.2232507 0.12897709 -0.08034279
0.06540315 0.111392535 0.15081373 -0.21319675 -0.112309866 -0.03543239 -0.025611704 -0.033246312
-0.04578184 0.36076656 -0.20415223 0.22953326 0.25924242 -0.0040657846 0.055362236 -0.121121995
-0.11869107 -0.016901875 -0.4304613 0.08732614 0.084450714 0.25752023 0.0657312 -0.19437669
0.20312582 0.17540514 -0.15974033 0.22287999 0.07652592 0.21827392 0.14826582 -0.08883688
-0.04527619 -0.106539026 -0.0006310306 0.1449501 -0.103045195 0.05941661 -0.08408205 -0.118801124
0.18208367 -0.21461377 -0.23133403 0.037055418 0.1332006 -0.059943162 -0.19427645 -0.15371397
0.033405837 0.12947391 0.0354943 -0.24961409 0.113010675 -0.13942324 -0.09882183 -0.017437765
-0.20077755 -0.07862208 0.024779182 0.22013162 0.11314593 -0.008061428 0.099864915 0.2931262
-0.070556596 -0.065224096 0.023442842 0.11278929 0.17738318 -0.15789232 0.15200022 0.21402028
-0.14400913 0.26543388 0.01155 -0.14102302 0.19135451 0.012067385 -0.18078752 -0.15980832
0.19815482 -0.23223898 0.09263362 0.05776974 -0.04275932 -0.10563357 0.15863508 0.057860598
-0.022344505 -0.17928301 0.14159212 0.33297825 -0.14295664 0.06710886 0.103563055 0.09918924
0.22845155 0.12840806 -0.18890019 -0.15886748 0.17637636 0.20855695 0.11120386 0.07878358
0.17917348 -0.21482305 -0.1844937 -0.011689363 -0.17441304 -0.01931646 -0.039951004 -0.10381527
0.2472842 0.24732812 -0.25885588 0.18468224 -0.19994959 -0.02438381 -0.19586203 -0.0035309019
-0.28340837 -0.25376922 0.17999408 -0.022309273 0.24265027 -0.08060155 0.15524778 -0.21684146
-0.13482423 0.08437235 0.03739136 -0.091529384 -0.113426186 0.22992331 0.23337048 0.15007672
0.1150991 -0.07157318 -0.16517052 -0.17922035 0.2361069 0.071348354 0.1308537 -0.19274347
00000000: 5c15 f33d c807 0dbe ebfb 37be 987e 45be
00000010: 67ae ae3d cd33 7ebe 59c4 c5bb ce85 83bd
00000020: 1750 b13e 7c45 6e3e 3861 bcbd dbdf adbb
00000030: d681 98be 4701 923e 8ad3 ac3d cbfc 283e
00000040: cb3b 003e 9931 923e 7239 d13c 664d fd3d
00000050: d3e5 c53e 68fd f3bc 898a b23d 26bf 4ebe
00000060: bd75 9e3e 3059 c7bd becb 61be d74f 8fbd
00000070: fc9f 393e 1dcc c9bd 4fbc 663d e2c3 c23d
00000080: 0f36 f7bc 11ea 06bd e6b5 36be 65c0 e13c
00000090: 2f61 42be 994a c8bc ddf6 853d d6ed 943d
000000a0: 9ef2 11be 5782 503d 4733 36be b2ff cd3b
000000b0: 07fd 253c 0c79 193e 11eb 74bd a4e0 a5be
000000c0: abc7 0d3e 1ee6 9dbd 28d4 d43d b1dd 85be
000000d0: 2fdb 9e3e e9a0 81be 54ab 8b3d 2dbd 02be
000000e0: 172e dd3d e923 1f3e 63f1 8e3d 649c 103e
000000f0: 0d3e 15be 6592 423b 6a97 a73c 08ec 18be
00000100: 8762 aebc 23e4 a13e f4d4 303e e110 35be
00000110: de36 3cbe 83e7 443e d335 9b3e ca37 bfbd
00000120: 776e 9ebd e4fb b6bd f3df ff3c e195 4ebe
00000130: 7423 b7bd 7069 a2bd 125c cd3c fa5d bdbc
00000140: ac19 0f3e b587 01be 5f42 3f3e aee5 2c3e
00000150: e43f b23d a777 13be c904 36bd 0815 0f3c
00000160: b549 dbbc 0508 93bc 925d f13d d542 94bd
00000170: 2981 46be dd69 4bbe 8315 643d 243a 203e
00000180: 1a8b 1ebe d04e d3bd d7ba 70be 867d 083e
00000190: 7016 b93c d4cc 903d b80d 373c 0ebc 653e
000001a0: 8c9b 1f3e 5af0 6cbe 6ff4 1ebd 3689 1b3e
000001b0: b4f8 92bd d59b 64be 9212 043e c38a a4bd
000001c0: 16f2 853d c521 e43d ea6e 1a3e 4050 5abe
000001d0: b702 e6bd 8e21 11bd a3cf d1bc 492d 08bd
000001e0: bd85 3bbd 65b6 b83e 480d 51be c40a 6b3e
000001f0: 6cbb 843e 463a 85bb 83c3 623d cf0e f8bd
00000200: 4e14 f3bd cd75 8abc 6c65 dcbe 0cd8 b23d
00000210: 7ff4 ac3d b1d9 833e 149e 863d af0a 47be
00000220: 3700 503e 689d 333e f892 23be a73a 643e
00000230: 9fb9 9c3d 3383 5f3e ffd2 173e 1cf0 b5bd
00000240: 8773 39bd 2231 dabd bf6b 25ba cd6d 143e
00000250: 5c09 d3bd d55e 733d 3633 acbd 014e f3bd
00000260: 2474 3a3e b6c3 5bbe d4e2 6cbe 6cc7 173d
00000270: bd65 083e f686 75bd 68f0 46be 3267 1dbe
00000280: 8fd4 083d cf94 043e 7962 113d d69a 7fbe
00000290: 2472 e73d f7c4 0ebe 1963 cabd a5d9 8ebc
000002a0: a198 4dbe 9d04 a1bd b6fd ca3c 2f6a 613e
000002b0: 0eb9 e73d 1414 04bc fa85 cc3d a314 963e
000002c0: fa7f 90bd 3694 85bd 340b c03c 12fe e63d
000002d0: f0a3 353e 86ae 21be f2a5 1b3e 2228 5b3e
000002e0: 2177 13be f3e6 873e 363c 3d3c 5768 10be
000002f0: 70f2 433e 48b6 453c 5d20 39be cba4 23be
00000300: 19e9 4a3e 0ed0 6dbe b2b6 bd3d f69f 6c3d
00000310: 6624 2fbd 6a56 d8bd 3c71 223e 3cff 6c3d
00000320: d30b b7bc f795 37be 86fd 103e 207c aa3e
00000330: 3a63 12be 5f70 893d de18 d43d ba23 cb3d
00000340: 34ef 693e 677d 033e 0d6f 41be 28ae 22be
00000350: 019c 343e f48f 553e d9be e33d 4959 a13d
00000360: 4179 373e 93fa 5bbe ebeb 3cbe be84 3fbc
00000370: 5599 32be 8d3d 9ebc aaa3 23bd 1a9d d4bd
00000380: 1238 7d3e 9543 7d3e c288 84be 571d 3d3e
00000390: 96bf 4cbe 8ec0 c7bc 0e90 48be b466 67bb
000003a0: e71a 91be 0aee 81be 5e50 383e f0c1 b6bc
000003b0: 5079 783e 6d12 a5bd 46f9 1e3e b00b 5ebe
000003c0: 5d0f 0abe 69cb ac3d af27 193d c273 bbbd
000003d0: fd4b e8bd 0471 6b3e acf8 6e3e b6ad 193e
000003e0: 14b9 eb3d f694 92bd 7622 29be 8a85 37be
000003f0: 02c6 713e 161f 923d 83fe 053e 8b5e 45be

fc1.bias f4 [64]
-0.07793641 -0.1016434 0.115136355 -0.0031761832 0.108367495 0.11101564 0.17880872 -0.094459996
-0.22163197 -0.17628537 0.102065995 0.043590397 0.15578923 -0.2335062 -0.049792886 0.13853867
0.15904462 -0.12333667 0.07874912 0.23953521 0.110881716 0.16375151 0.10290458 -0.01170748
-0.01750307 -0.017441092 0.077480346 0.16488542 0.15569632 -0.11263454 0.030520985 -0.24837454
0.1141291 0.16369666 0.2538652 -0.08138666 -0.018319601 0.1514998 0.1794446 -0.15212962
-0.052175645 0.14361092 -0.114068925 -0.038150694 0.091853 0.17862923 -0.21123739 0.29562524
0.15374345 0.23578745 -0.06637301 -0.20684598 0.22118329 0.022712652 -0.107169315 -0.029291537
0.24436812 0.17376742 0.004510584 0.07306767 0.20389193 0.18390347 0.047825594 -0.17264885
00000000: 209d 9fbd 6a2a d0bd 9ccc eb3d 8327 50bb
00000010: c7ef dd3d 2b5c e33d a219 373e 3e74 c1bd
00000020: 7ef3 62be 2784 34be fa07 d13d d88b 323d
00000030: 3687 1f3e 401c 6fbe a0f3 4bbd 15dd 0d3e
00000040: 98dc 223e f097 fcbd 3847 a13d b848 753e
00000050: f415 e33d 7aae 273e a3bf d23d bbd0 3fbc
00000060: 9962 8fbc 9fe0 8ebc 04ae 9e3d b9d7 283e
00000070: db6e 1f3e f0ac e6bd 2507 fa3c e555 7ebe
00000080: 85bc e93d 19a0 273e 9ffa 813e 0dae a6bd
00000090: fd12 96bc c322 1b3e 53c0 373e dec7 1bbe
000000a0: 21b6 55bd be0e 133e f89c e9bd e743 1cbd
000000b0: 6d1d bc3d 95ea 363e 9d4e 58be 315c 973e
000000c0: ec6e 1d3e 4472 713e 93ee 87bd 6fcf 53be
000000d0: df7d 623e e20f ba3c 967b dbbd cef4 efbc
000000e0: a33b 7a3e 16f0 313e 85cd 933b 81a4 953d
000000f0: 0cc9 503e 3151 3c3e c5e4 433d dcca 30be

fc2.weight f4 [32, 64]
-0.06693169 -0.110393405 0.053124 0.094608836 0.06315286 0.04363224 -0.037774645 -0.08170346
-0.041574426 0.075163566 0.01513189 0.066348955 -0.1370987 -0.1281147 -0.114614725 0.09673485
-0.09447039 0.075954676 -0.097098626 0.054191075 0.03904595 0.0058289818 -0.13602471 -0.07758849
0.018245036 -0.11165453 -0.082989 0.0031989622 -0.043851115 0.03946179 0.007239933 -0.04445973
-0.1343172 0.08755274 -0.098039456 -0.09638853 -0.010959221 0.019072097 0.066089846 -0.13494696
0.08909545 -0.12843467 -0.13817398 0.027333021 -0.037055887 -0.09152889 0.00755039 -0.08730445
0.005285069 -0.07920079 -0.025535962 0.08061366 0.04259332 -0.032052003 -0.05155995 -0.025138482
-0.09195025 -0.13422582 0.0026214786 -0.065904185 0.0029960277 -0.032590773 0.029397907 -0.13010673
0.12401442 0.06367278 0.063811645 0.021020316 0.018463662 -0.11422197 -0.1397314 0.06329954
-0.077292144 -0.08195158 0.14653869 0.05086345 -0.22073554 0.08852304 0.016003706 -0.13506778
-0.067742154 0.12397481 -0.03654584 -0.029728085 0.058123708 0.06451382 0.13434148 0.053891405
-0.18650219 0.13586788 0.022450864 0.22613102 -0.039113574 -0.008459911 -0.031709857 -0.14162503
0.040809408 0.027125405 -0.061480206 -0.047132105 0.056683257 -0.02563931 0.042542636 0.22518942
0.061270695 0.05955061 0.09988529 0.002253157 -0.0011156419 0.06737398 -0.0783329 0.035551786
0.10724945 0.12640667 0.14239873 0.040112447 0.030038953 0.10056388 0.022224056 -0.02446299
0.12864473 -0.07720387 -0.026226731 0.009432935 -0.022953715 0.059307802 0.05532958 -0.06051114
-0.008404265 -0.036492717 0.06221309 0.008563059 -0.004472899 -0.10100822 0.08009183 -0.059534453
0.13393378 0.0050102454 0.07280446 0.15923052 -0.0988754 0.15088063 -0.036795486 0.20238586
0.03869735 0.13552007 -0.033046346 -0.113801174 -0.21116666 0.05725169 -0.06154574 0.12642871
0.2864564 -0.18843278 -0.19055675 0.0878821 0.019743277 -0.1218819 0.11586037 0.01729729
0.19183636 0.06770121 -0.0472619 0.014318289 0.09029294 0.19478905 -0.17239381 -0.0015269319
0.05855942 0.18249698 0.16038376 0.018288769 -0.024205085 -0.116205074 -0.10373107 -0.14653473
0.005260133 -0.03404486 0.25412938 -0.10446536 0.11101483 -0.08186981 0.008230991 0.045745198
-0.20759866 -0.059828352 -0.010840898 -0.11049664 -0.009316733 0.03437694 0.0009377887 -0.0101214005
-0.021609047 0.030264664 -0.08887288 0.036689065 0.08488101 -0.01241401 0.14945944 -0.04513253
0.022727087 0.18925808 0.027430456 0.04883333 -0.19465414 0.04363629 -0.08954149 0.11882476
-0.06950952 -0.04812833 -0.07007911 -0.21148887 -0.07549361 -0.019607175 -0.089101665 -0.0032799977
0.13267069 -0.15415499 -0.25796664 -0.107499965 -0.016514996 0.049880654 0.14903189 -0.059255682
-0.08077073 0.022864923 0.15538605 0.20718004 -0.03332523 -0.0014582588 0.034235645 -0.18545683
0.042870436 0.1718911 0.012510859 0.21722233 0.11749384 0.07503289 -0.1586479 -0.17881212
0.09734782 0.09908691 -0.05340812 -0.08732967 -0.022579927 0.0047817505 0.07622605 0.020194264
-0.04142394 -0.1504987 -0.19279133 0.070066534 -0.11858158 0.017897647 -0.004512336 -0.14159553
00000000: 7b13 89bd f015 e2bd 8d98 593d 47c2 c13d
00000010: 4956 813d b8b7 323d 96b9 1abd 2554 a7bd
00000020: f249 2abd 5bef 993d bfeb 773c f6e1 873d
00000030: 9a63 0cbe 8030 03be 20bb eabd ec1c c63d
00000040: b179 c1bd 208e 9b3d a5db c6bd 76f7 5d3d
00000050: a5ee 1f3d 0b01 bf3b 104a 0bbe b7e6 9ebd
00000060: 9d76 953c 21ab e4bd 23f6 a9bd aea5 513b
00000070: 3a9d 33bd b0a2 213d f63c ed3b 681b 36bd
00000080: 738a 09be da4e b33d e9c8 c8bd 5a67 c5bd
00000090: 4e8e 33bc 163d 9c3c 1d5a 873d 892f 0abe
000000a0: ad77 b63d 6184 03be 7b7d 0dbe 80e9 df3c
000000b0: eac7 17bd 8073 bbbd 4369 f73b adcc b2bd
000000c0: 5f2e ad3b 0634 a2bd cb30 d1bc c618 a53d
000000d0: 5576 2e3d f648 03bd 8730 53bd 38ef cdbc
000000e0: 6a50 bcbd 7e72 09be 1dcd 2b3b c6f8 86bd
000000f0: 0159 443b e77d 05bd e1d3 f03c b33a 05be
00000100: 46fb fd3d e066 823d aeaf 823d cc32 ac3c
00000110: 1b41 973c 35ed e9bd c015 0fbe 30a3 813d
00000120: 584b 9ebd 3bd6 a7bd 3d0e 163e 3156 503d
00000130: 7f08 62be 914b b53d 341a 833c 354f 0abe
00000140: 66bc 8abd 81e6 fd3d 17b1 15bd 5088 f3bc
00000150: 2013 6e3d d21f 843d d090 093e 3cbd 5c3d
00000160: 6efa 3ebe f320 0b3e e0ea b73c e48e 673e
00000170: 8e35 20bd 709b 0abc 32e2 01bd 2706 11be
00000180: c427 273d 1936 de3c abd2 7bbd 980d 41bd
00000190: b42c 683d 8809 d2bc 3041 2e3d 0e98 663e
000001a0: fbf6 7a3d 57eb 733d a990 cc3d b4a9 133b
000001b0: bb3a 92ba 5ffb 893d 006d a0bd c09e 113d
000001c0: 9aa5 db3d c070 013e f9d0 113e f34c 243d
000001d0: 4014 f63c 6ff4 cd3d 390f b63c 9c66 c8bc
000001e0: 72bb 033e 101d 9ebd 71d9 d6bc 998c 1a3c
000001f0: 6e09 bcbc bdec 723d 45a1 623d 87da 77bd
00000200: 0bb2 09bc 6379 15bd 27d3 7e3d 134c 0c3c
00000210: 6591 92bb 66dd cebd 2f07 a43d 66da 73bd
00000220: f025 093e fc2c a43b 811a 953d 530d 233e
00000230: 307f cabd 7480 1a3e ddb6 16bd 3d3e 4f3e
00000240: 1d81 1e3d c6c5 0a3e 9b5b 07bd 9710 e9bd
00000250: 133c 58be c080 6a3d 6317 7cbd 8776 013e
00000260: 6aaa 923e 86f4 40be 4f21 43be 88fb b33d
00000270: a7bc a13c 389d f9bd 3448 ed3d 0cb3 8d3c
00000280: c070 443e efa6 8a3d b295 41bd 4297 6a3c
00000290: 81eb b83d c876 473e 0188 30be 5523 c8ba
000002a0: 01dc 6f3d 7de0 3a3e a43b 243e 54d2 953c
000002b0: be49 c6bc edfc edbd f570 d4bd 330d 16be
000002c0: 325d ac3b a072 0bbd 3f1d 823e eff1 d5bd
000002d0: be5b e33d 5cab a7bd 47db 063c 515f 3b3d
000002e0: be94 54be 930e 75bd 069e 31bc 104c e2bd
000002f0: 36a5 18bc d6ce 0c3d efd5 753a 3bd4 25bc
00000300: 7505 b1bc 9aed f73c fc02 b6bd 4647 163d
00000310: 18d6 ad3d 2264 4bbc e50b 193e e3dc 38bd
00000320: 282e ba3c dfcc 413e d6b5 e03c 7505 483d
00000330: 6a53 47be f7bb 323d 8761 b7bd 655a f33d
00000340: 025b 8ebd 3622 45bd a385 8fbd 8a90 58be
00000350: 659c 9abd 3a9f a0bc ef7a b6bd 3bf5 56bb
00000360: d3da 073e ceda 1dbe 3414 84be f128 dcbd
00000370: 754a 87bc a84f 4c3d d19b 183e 16b6 72bd
00000380: 206b a5bd 384f bb3c 851d 1f3e 0127 543e
00000390: 0980 08bd 0c23 bfba ad3a 0c3d 65e8 3dbe
000003a0: e998 2f3d 3804 303e 59fa 4c3c 886f 5e3e
000003b0: 9ca0 f03d d8aa 993d 9874 22be 861a 37be
000003c0: 4b5e c73d 14ee ca3d 79c2 5abd e6d9 b2bd
000003d0: 8af9 b8bc 3bb0 9c3b 671c 9c3d 716e a53c
000003e0: 26ac 29bd 551c 1abe 176b 45be 0b7f 8f3d
000003f0: e6da f2bd 169e 923c 38dc 93bb 6bfe 10be

fc2.bias f4 [32]
-0.02832337 0.11964254 0.091195844 0.090389214 -0.022112144 0.10966568 -0.1106013 -0.031472992
-0.18288721 -0.014769477 0.030111961 -0.05538604 -0.030995486 0.03640716 0.0036509188 -0.041811693
0.072548866 -0.023387842 -0.082662754 -0.0659477 -0.052650712 0.16755407 0.085220635 -0.09628617
-0.112696044 -0.005193026 -0.021750668 -0.037656188 0.0755008 -0.06816662 0.03038228 0.0105605535
00000000: 6906 e8bc 2607 f53d e3c4 ba3d fb1d b93d
00000010: 8724 b5bc 6698 e03d ef82 e2bd d3e9 00bd
00000020: c946 3bbe adfb 71bc 5cad f63c 79dc 62bd
00000030: 3fea fdbc ad1f 153d 4144 6f3b bd42 2bbd
00000040: 8094 943d dc97 bfbc 174b a9bd 960f 87bd
00000050: 46a8 57bd 4b93 2b3e 2888 ae3d af31 c5bd
00000060: 2fcd e6bd 422a aabb 752e b2bc 603d 1abd
00000070: 2aa0 9a3d f19a 8bbd 42e4 f83c 2c06 2d3c

policy_head.weight f4 [9, 32]
-0.15251645 0.19583964 0.061361846 -0.07329855 -0.077310376 -0.0232766 0.041504692 -0.016885456
-0.06858141 -0.25494513 -0.08746724 -0.10905642 0.118249774 0.14102666 0.013225835 0.07016846
0.15642126 0.10829461 0.09687298 0.15556023 0.054558497 -0.15740046 0.13437898 -0.20053147
0.15608583 -0.08731176 -0.17660628 0.20381798 -0.106209986 0.21288347 -0.03298315 0.04645845
-0.090203226 -0.105249755 0.076721355 0.26265597 -0.20573767 0.08259678 -0.18182753 -0.14631633
-0.20608516 0.092787415 0.19437933 0.09908626 -0.19406763 -0.24819772 -0.009251589 -0.0984957
0.028889598 0.13643332 0.1661635 -0.079675734 0.041996162 -0.04709329 -0.052533343 -0.02186113
-0.18182978 -0.2973491 -0.05561989 -0.16406217 0.04693964 -0.31072575 -0.13897221 0.25591952
0.15253398 0.0837325 -0.37432575 -0.16757911 -0.2599845 -0.052537084 -0.10267024 0.1870481
-0.2601293 -0.15437943 -0.1630959 -0.34350294 0.008307313 0.2885297 0.22106211 -0.09841515
0.14153366 -0.09052467 0.1136664 0.12581635 0.117181264 0.03972133 -0.025186103 -0.00025776692
-0.059100896 -0.021580033 0.09371081 -0.04596577 0.013641017 -0.08511288 0.045101967 -0.08071303
0.072426416 0.1011483 -0.19911416 -0.08979986 -0.17289847 -0.12243444 -0.05720799 0.08310352
0.13566907 -0.04699946 -0.17730133 0.15345906 -0.03519018 0.10323397 0.20388609 -0.21292023
-0.25137663 0.065579675 -0.14141823 -0.21774824 -0.31392264 0.029860253 -0.17338254 0.14906543
0.24810065 0.12613302 -0.31417152 -0.20838632 -0.005462805 -0.14461333 -0.20094408 0.18953285
-0.07059439 0.0636219 -0.12842818 -0.024506085 0.050071456 -0.1291476 -0.11481435 0.1239723
0.17498477 0.14277126 0.22730431 -0.10513669 -0.04269925 0.075876266 0.06939904 0.18444587
0.12773335 -0.17652093 -0.038215578 -0.21766329 -0.08984368 0.08491048 0.20481414 -0.011425986
-0.09278202 0.03222341 -0.12290704 0.2113833 0.030957872 -0.056226965 0.13884363 -0.09445154
-0.10927334 0.13596663 0.17793512 0.2090151 0.057105307 -0.052968524 0.0038960949 0.0018795342
0.08238777 -0.1371918 -0.20796394 0.005665372 -0.022364693 -0.29520926 -0.014591969 0.020730438
-0.23819345 -0.062488157 -0.030124651 -0.117972665 0.14705803 -0.23185965 -0.075590946 0.2479649
-0.15922973 -0.40630445 0.184136 0.09540276 -0.0414957 0.17589788 -0.23373029 -0.033721924
-0.16004308 -0.10964934 0.2329242 -0.106898986 0.15482792 -0.19082831 -0.1741932 -0.13183893
0.23486137 -0.04269407 -0.24618223 -0.11799916 -0.16667418 -0.118104175 0.030724153 0.058151864
0.009441873 0.032794304 -0.024251759 0.11202201 0.1565249 -0.1467121 -0.20113818 0.19928847
-0.068058535 -0.26930323 -0.17236075 -0.16679503 -0.017672766 0.066908024 0.21462086 0.11620494
0.10922515 -0.0018224071 -0.24423708 0.018967928 -0.05714542 0.06134596 -0.1040442 0.1681961
-0.15709865 -0.21602939 -0.074609555 0.015263384 -0.15096481 -0.047631547 -0.0014883501 -0.17067692
-0.19188607 0.18457824 0.05417838 -0.090043604 -0.20614374 -0.07443081 0.23381911 -0.058889784
0.036296703 -0.11520328 -0.14356771 0.026970362 0.0036907769 -0.11378909 -0.054214917 -0.08581007
00000000: 462d 1cbe 308a 483e 8f56 7b3d 8d1d 96bd
00000010: e754 9ebd 91ae bebc d300 2a3d 5e53 8abc
00000020: 6974 8cbd 2b88 82be 0622 b3bd f958 dfbd
00000030: f02c f23d 4b69 103e 2cb1 583c 7bb4 8f3d
00000040: e52c 203e 91c9 dd3d 5765 c63d 2e4b 1f3e
00000050: bb78 5f3d 962d 21be a59a 093e 1f58 4dbe
00000060: f7d4 1f3e 82d0 b2bd 47d8 34be a9b5 503e
00000070: 9f84 d9bd 20fe 593e 5719 07bd 374b 3e3d
00000080: 78bc b8bd 2f8d d7bd 1620 9d3d d87a 863e
00000090: e5ac 52be 8028 a93d ff30 3abe f3d3 15be
000000a0: fd07 53be 5407 be3d 600b 473e bded ca3d
000000b0: aab9 46be 8b27 7ebe fa93 17bc 1db8 c9bd
000000c0: e1a9 ec3c 2db5 0b3e c426 2a3e 082d a3bd
000000d0: 2b04 2c3d e5e4 40bd 342d 57bd 1d16 b3bc
000000e0: 9631 3abe 243e 98be afd1 63bd eaff 27be
000000f0: c843 403d 7217 9fbe bb4e 0ebe e207 833e
00000100: de31 1c3e f27b ab3d a0a7 bfbe dc99 2bbe
00000110: b01c 85be 2031 57bd c644 d2bd 8a89 3f3e
00000120: ab2f 85be a415 1ebe 9d02 27be 9edf afbe
00000130: 651b 083c 2aba 933e 1b5e 623e e28d c9bd
00000140: 33ee 103e 0065 b9bd eec9 e83d 00d6 003e
00000150: bbfc ef3d d5b2 223d 1653 cebc e424 87b9
00000160: c813 72bd 9cc8 b0bc 74eb bf3d 9a46 3cbd
00000170: 927e 5f3c a94f aebd d7bc 383d e04c a5bd
00000180: 4d54 943d d726 cf3d 95e4 4bbe fde8 b7bd
00000190: 4c0c 31be e8be fabd ed52 6abd 2e32 aa3d
000001a0: d5ec 0a3e 8182 40bd 7b8e 35be 5f24 1d3e
000001b0: 9423 10bd 556c d33d 84c7 503e c307 5abe
000001c0: 70b4 80be a34e 863d f1cf 10be 65f9 5ebe
000001d0: 78ba a0be 7d9d f43c 318b 31be 9ca4 183e
000001e0: 190e 7e3e 0429 013e 17db a0be 3963 55be
000001f0: 5401 b3bb 8415 14be 49c4 4dbe e614 423e
00000200: cb93 90bd 334c 823d ad82 03be fcc0 c8bc
00000210: ba17 4d3d 453f 04be c923 ebbd 30e5 fd3d
00000220: 352f 333e a132 123e 76c2 683e e851 d7bd
00000230: 69e5 2ebd 0465 9b3d 1521 8e3d 61df 3c3e
00000240: 88cc 023e e7c1 34be f087 1cbd 20e3 5ebe
00000250: f7ff b7bd 8ce5 ad3d ccba 513e 0f34 3bbc
00000260: 8004 bebd b2fc 033d b0b6 fbbd dd74 583e
00000270: 5d9b fd3c 3f4e 66bd 062d 0e3e cf6f c1bd
00000280: b3ca dfbd d63a 0b3e a034 363e 0e08 563e
00000290: 41e7 693d 86f5 58bd a055 7f3b b45a f63a
000002a0: ebba a83d 027c 0cbe 80f4 54be 96a4 b93b
000002b0: 2936 b7bc ab25 97be 2713 6fbc e1d2 a93c
000002c0: fce8 73be 95f3 7fbd f9c7 f6bc a79b f1bd
000002d0: 6196 163e 9e6c 6dbe 6dcf 9abd 83ea 7d3e
000002e0: 1e0d 23be 2307 d0be 268e 3c3e 8662 c33d
000002f0: 65f7 29bd 931e 343e fe56 6fbe 0020 0abd
00000300: 55e2 23be d58f e0bd ae83 6e3e dbed dabd
00000310: 368b 1e3e 7f68 43be b45f 32be c900 07be
00000320: 807f 703e fadf 2ebd 3217 7cbe 8ba9 f1bd
00000330: a3ac 2abe 9ae0 f1bd 38b1 fb3c a630 6e3d
00000340: 16b2 1a3c 5253 063d a0ab c6bc cc6b e53d
00000350: 1048 203e b23b 16be 2bf7 4dbe 4712 4c3e
00000360: 4662 8bbd 1de2 89be 567f 30be 51cc 2abe
00000370: 7ac6 90bc 1307 893d 92c5 5b3e dbfc ed3d
00000380: 6fb1 df3d d6dd eeba 4919 7abe a162 9b3c
00000390: 5111 6abd e745 7b3d 2015 d5bd 993b 2c3e
000003a0: 78de 20be cf36 5dbe e5cc 98bd 4613 7a3c
000003b0: 8596 1abe 4c19 43bd be14 c3ba eec5 2ebe
000003c0: c87d 44be 1402 3d3e 26ea 5d3d c868 b8bd
000003d0: 5817 53be 2e6f 98bd 476e 6f3e 6a36 71bd
000003e0: daab 143d b2ef ebbd 6a03 13be f3f0 dc3c
000003f0: f6e0 713b 410a e9bd 7610 5ebd 31bd afbd

policy_head.bias f4 [9]
-0.11182034 0.03443053 0.1508349 -0.024543177 -0.043942045 -0.06189199 0.14983197 -0.09107079
0.03632958
00000000: 1002 e5bd 0707 0d3d 7774 1a3e c60e c9bc
00000010: 93fc 33bd 7582 7dbd 8d6d 193e 5383 babd
00000020: 53ce 143d

value_head.0.weight f4 [16, 32]
-0.04697893 -0.07529529 -0.16042377 0.040523104 0.12454221 -0.00175237 0.099073276 -0.13512507
0.06539438 -0.04779267 -0.14617552 0.13563624 -0.05874274 -0.0904731 0.04534589 -0.084114164
0.09792005 -0.07882597 0.13413845 0.014228012 -0.123109974 -0.06297759 -0.2259284 0.09757615
-0.09541539 -0.04956516 0.10490591 -0.21607299 0.031869657 0.080407284 -0.049313392 0.07442084
0.18037279 0.09441019 0.15027428 -0.021605141 -0.08721419 0.025985975 -0.02026447 0.09667402
-0.12560433 0.0070431945 -0.074909426 0.08273935 -0.05729642 0.18407243 -0.0033536258 0.09253175
-0.10930639 0.2483944 0.11726995 -0.048863813 0.13403292 0.066768646 0.031775605 -0.18244712
-0.013770364 -0.13381171 -0.031196173 0.13794655 0.22492026 0.016387898 0.031067818 0.21717791
-0.10385838 -0.11225026 -0.108415544 -0.10099371 -0.02336999 0.15807045 -0.060864393 -0.08710472
-0.05614747 -0.14316925 -0.09967354 -0.06768749 -0.14669506 -0.07834339 0.0058440086 0.078490496
-0.08669005 -0.043164384 -0.07755082 -0.15277624 -0.016907968 -0.1388039 -0.1732971 0.08454816
0.05557696 -0.06490632 0.08055308 0.030548582 -0.10815421 0.17094435 -0.097458355 -0.011790801
-0.11150334 -0.16406325 0.077344336 0.06564159 0.09365148 -0.060257897 0.13000594 0.039558858
0.018243406 -0.10190143 -0.087145746 -0.13507286 0.004410252 -0.17952833 -0.009155924 0.13666299
-0.1843633 0.09305221 0.054318503 -0.018531635 -0.071044825 -0.07866568 -0.031127699 -0.043401193
-0.080320135 -0.025219504 -0.18861328 -0.07668825 0.1138727 0.102451354 0.017840916 -0.17595543
0.08456277 0.18153584 -0.1559011 -0.10709937 0.048984956 -0.14787397 -0.021705741 0.03162882
0.08397159 -0.0623437 -0.0044522076 0.029416202 0.173922 0.07222962 -0.10192 -0.020845955
-0.06793165 -0.19166781 0.16509888 -0.09815231 0.08396953 0.1705048 -0.06552695 0.033083063
0.116021186 0.09025934 -0.017346779 0.11913848 -0.07699257 -0.014092134 0.17285664 0.09142438
0.038294453 -0.0908901 -0.01619449 -0.10403404 0.123769134 -0.095445424 0.017920734 0.022332799
-0.14098078 -0.12451535 -0.050706413 -0.10404188 0.004700983 -0.026263287 -0.015534382 -0.078548335
0.024743818 -0.08351813 0.13390057 -0.0588087 0.03709611 0.00031447393 -0.023229642 0.05990273
-0.15532154 0.0128317755 0.10423749 0.056113984 -0.12117713 -0.12401971 -0.1432367 0.040174045
0.009245592 -0.20972179 0.16662936 0.05652733 -0.061520685 -0.20894465 -0.041217297 -0.15842974
-0.0039625345 -0.08992343 0.09246149 0.120379664 0.07519556 -0.07788401 0.030527102 0.14780931
0.08872657 0.15872431 -0.10770144 0.2095967 -0.071269825 -0.0044058245 -0.13215476 0.26525953
-0.1541598 -0.036164727 -0.051763922 0.06919409 -0.18979888 0.18921547 0.08184135 -0.049000204
0.05539601 -0.103222996 -0.18210843 0.09857144 0.05957363 0.06640536 -0.025718892 -0.027879776
0.09450941 0.11240083 0.12199601 0.1482626 -0.0001458564 0.10262603 0.14971368 -0.07287284
0.05191784 -0.16723345 -0.054186434 -0.097098194 -0.063770816 0.09914275 0.120996185 0.2913975
-0.14117427 0.089024246 -0.16372494 0.13691185 -0.2047779 -0.044727597 0.08925134 0.069589674
00000000: fa6c 40bd 6b34 9abd 2146 24be 8efb 253d
00000010: fc0f ff3d c8af e5ba eee6 ca3d 3a5e 0abe
00000020: 7ded 853d 3fc2 43bd 09af 15be 3ae4 0a3e
00000030: 3a9c 70bd f649 b9bd 9dbc 393d 0c44 acbd
00000040: 4f8a c83d 836f a1bd 975b 093e 9c1c 693c
00000050: 1521 fcbd 65fa 80bd c659 67be 01d6 c73d
00000060: 2569 c3bd d604 4bbd e9d8 d63d 3d42 5dbe
00000070: c289 023d 93ac a43d d7fc 49bd f469 983d
00000080: a5b3 383e 215a c13d 80e1 193e 44fd b0bc
00000090: 5a9d b2bd 8ae0 d43c ac01 a6bc 07fd c53d
000000a0: 6c9e 00be 99ca e63b 1d6a 99bd 4073 a93d
000000b0: a7af 6abd 7c7d 3c3e 81c8 5bbb 4981 bd3d
000000c0: 07dc dfbd 1a5b 7e3e 3a2b f03d 6c25 48bd
000000d0: ed3f 093e 00be 883d 2327 023d 6bd3 3abe
000000e0: 189d 61bc f005 09be 1e8f ffbc dc41 0d3e
000000f0: 7f51 663e ea3f 863c f081 fe3c e363 5e3e
00000100: b4b3 d4bd 77e3 e5bd f808 debd cad5 cebd
00000110: 6c72 bfbc 38dd 213e f14c 79bd f663 b2bd
00000120: e4fa 65bd f69a 12be a421 ccbd bd9f 8abd
00000130: 3b37 16be 8072 a0bd 197f bf3b a0bf a03d
00000140: 8e8a b1bd 23cd 30bd f7d2 9ebd 6071 1cbe
00000150: 9482 8abc 9c22 0ebe cc74 31be 9627 ad3d
00000160: aba4 633d 9bed 84bd 03f9 a43d 0541 fa3c
00000170: f47f ddbd 090c 2f3e 3f98 c7bd 342e 41bc
00000180: dd5b e4bd 3200 28be b566 9e3d 196f 863d
00000190: 59cc bf3d fcd0 76bd 4720 053e 7808 223d
000001a0: 3273 953c b2b1 d0bd 7879 b2bd 8a50 0abe
000001b0: e083 903b 46d6 37be bb02 16bc 62f1 0b3e
000001c0: bcc9 3cbe 2892 be3d 147d 5e3d a8cf 97bc
000001d0: f37f 91bd 791b a1bd 84ff febc 73c5 31bd
000001e0: e27e a4bd 2299 cebc d723 41be bb0e 9dbd
000001f0: 1736 e93d 04d2 d13d 1d27 923c a92d 34be
00000200: 3f2f ad3d 88e4 393e 8aa4 1fbe ea56 dbbd
00000210: 73a4 483d 466c 17be 3dd0 b1bc 398d 013d
00000220: 4cf9 ab3d 1c5c 7fbd d3e3 91bb 3ffa f03c
00000230: 9c18 323e 1fed 933d 6fbb d0bd 23c5 aabc
00000240: c01f 8bbd 9144 44be ae0f 293e 1404 c9bd
00000250: 38f8 ab3d cf98 2e3e fe32 86bd 1b82 073d
00000260: 849c ed3d e4d9 b83d d51a 8ebc e0fe f33d
00000270: 48ae 9dbd b2e2 66bc 5501 313e b53c bb3d
00000280: a5da 1c3d 9724 babd 4faa 84bc cc0f d5bd
00000290: ac7a fd3d e478 c3bd 81ce 923c 46f3 b63c
000002a0: 445d 10be e701 ffbd 87b1 4fbd e913 d5bd
000002b0: b40a 9a3b 1b26 d7bc ec83 7ebc f3dd a0bd
000002c0: 8cb3 ca3c 8e0b abbd 3b1d 093e 64e1 70bd
000002d0: 17f2 173d fadf a439 174c bebc 915c 753d
000002e0: 9c0c 1fbe 5e3c 523c 777a d53d c7d7 653d
000002f0: b72b f8bd 0cfe fdbd a4ac 12be 8a8d 243d
00000300: d37a 173c 4fc1 56be e3a0 2a3e 3489 673d
00000310: 1dfd 7bbd 96f5 55be 78d3 28bd 683b 22be
00000320: 26d8 81bb c629 b8bd 735c bd3d 9d89 f63d
00000330: 2100 9a3d a781 9fbd f913 fa3c 535b 173e
00000340: 47b6 b53d a088 223e 9392 dcbd 84a0 563e
00000350: eaf5 91bd bc5e 90bb 9453 07be 19d0 873e
00000360: 11dc 1dbe 7721 14bd 6806 54bd a2b5 8d3d
00000370: a35a 42be b3c1 413e 709c a73d 70b4 48bd
00000380: ede6 623d 9466 d3bd a27a 3abe d3df c93d
00000390: 7b03 743d 89ff 873d 6db0 d2bc 2164 e4bc
000003a0: 268e c13d 6832 e63d 0bd9 f93d 27d2 173e
000003b0: 07f1 18b9 992d d23d 8b4e 193e 5b3e 95bd
000003c0: cda7 543d 3f3f 2bbe 98f2 5dbd 6bdb c6bd
000003d0: 469a 82bd 5b0b cb3d d9cc f73d 0e32 953e
000003e0: fd8f 10be 5852 b63d 83a7 27be 9f32 0c3e
000003f0: 4cb1 51be 4934 37bd 68c9 b63d 0885 8e3d

value_head.0.bias f4 [16]
-0.092328645 0.13362521 -0.012765501 -0.045972813 0.06627405 -0.01396287 -0.14337184 0.09894171
0.1076847 -0.13891757 -0.04083944 0.1775633 -0.09334519 -0.098069504 -0.050184425 -0.09545363
00000000: cd16 bdbd 0cd5 083e 6426 51bc fd4d 3cbd
00000010: b0ba 873d 86c4 64bc 11d0 12be f4a1 ca3d
00000020: cc89 dc3d 6840 0ebe 4247 27bd 27d3 353e
00000030: c32b bfbd aad8 c8bd 2f8e 4dbd 317d c3bd

value_head.2.weight f4 [1, 16]
0.18505712 -0.2092332 -0.18090169 0.006493328 0.257475 0.051998075 0.16659693 0.26848754
-0.124517 0.07796177 0.044492044 -0.25273824 -0.200326 -0.20389543 -0.1651716 0.07600435
00000000: 9d7f 3d3e 3a41 56be 4b3e 39be fcc5 d43b
00000010: c3d3 833e effb 543d 6398 2a3e 3377 893e
00000020: c502 ffbd 6caa 9f3d 4a3d 363d e866 81be
00000030: 4222 4dbe f7c9 50be be22 29be 2ba8 9b3d
