model2_20250707_152145_final.pth (torch, 20958 bytes, 9 tensors)

fc1.weight f4 [64, 19]
00000000: 727a e13d 8d1b 12be 824a 39be 1683 3dbe
00000010: 3c9c a43d ae04 81be 5411 17bc 7897 7abd
00000020: 03de b63e f982 603e ca40 c1bd 4d40 39bc
00000030: 96ea 8dbe 773a 963e a5bc 883d bc89 193e
00000040: 48f4 053e 7e41 9a3e 9ff0 1e3d 85c6 083e
00000050: 705c c43e f878 84bc 44c2 c73d 2305 4cbe
00000060: 6db8 9b3e 88c8 eabd bd41 60be 0f50 a9bd
00000070: a188 383e 4567 c9bd 7765 7c3d bf1c db3d
00000080: aace 84bc 9a21 24bd 26a6 46be 444b 933c
00000090: 2206 43be 7011 17bc 2782 9c3d 9f34 863d
000000a0: e131 0cbe b540 373d 0aeb 31be e2cb 923a
000000b0: e94f 363c 1da9 1b3e cf86 2cbd 2460 a1be
000000c0: d621 f33d 80c5 84bd 0902 c73d cc67 85be
000000d0: e083 9d3e 67f6 7abe c72e 833d 0a70 13be
000000e0: 7f59 a43d c157 1d3e 49a4 a83d c48a 053e
000000f0: 9345 07be 1e3f 5c3c d432 923c 5a9a 2bbe
00000100: d8f3 cbbc 0740 9c3e 2af8 303e f4e9 29be
00000110: c867 48be c8ed 4d3e 6238 9a3e a0ef b9bd
00000120: d0c1 95bd e264 d1bd aa34 1a3d 7679 4abe
00000130: c13d dabd 3d09 a0bd 057e b23c 032f cebb
00000140: be87 233e b02a 0dbe 483b 373e 67ef 203e
00000150: f897 ae3d f148 1fbe bb88 2bbd 3037 6c3a
00000160: cc14 18bc 3149 99bc 41fd de3d 45b9 85bd
00000170: dc0e 54be 91cd 4fbe ea64 763d 250e 0b3e
00000180: 6aa5 1fbe 95b2 ddbd af28 63be fb28 083e
00000190: da06 193c e482 873d 93bf 903b 6c3d 7b3e
000001a0: b79f 133e 79c0 6ebe f7cb 3cbd 7a42 243e
000001b0: d34a 72bd 83ae 6cbe ad94 ee3d 805b a5bd
000001c0: 9d35 b53d af1b 023e 3261 1f3e 784f 4fbe
000001d0: 8fdd ddbd 68ff 5ebd 2292 48bd 1d53 cdbc
000001e0: cb59 0abd 0509 b53e 19ee 47be 3ad9 6a3e
000001f0: 6b5c 853e 4a7d 813c b378 163d 140e f7bd
00000200: 01f7 cebd 4ae2 a5bc 6a14 d6be d7fc 933d
00000210: 6ff4 af3d 4499 7d3e cc86 6d3d 1327 4dbe
00000220: fb07 5b3e 95ba 403e f1a8 2cbe a5a1 4e3e
00000230: d9be 9b3d 2f54 613e 6d69 0d3e 2985 98bd
00000240: e406 80bd 7ebc adbd 3ed6 2f3c 8811 fc3d
00000250: f4c7 b9bd 46ac 423d 4c1b 99bd 7368 d8bd
00000260: 29d8 303e 2825 67be 8803 76be e27e 523d
00000270: f6fb 113e 8078 95bd ee15 4abe abd4 1cbe
00000280: 932f 263d a6f1 f53d 35fd 083d 2c64 86be
00000290: 3ce9 fa3d 8596 f3bd 32c4 edbd d6ea 42bc
000002a0: 2bfc 51be 74bf 7dbd 417f 323d c2ba 6a3e
000002b0: 9574 fa3d 1090 d9bb ca80 d73d b695 9c3e
000002c0: e746 96bd 13f3 7fbd feec 8b3b 4caf db3d
000002d0: dff2 323e 6a4d 0cbe 0616 143e d4d7 5a3e
000002e0: 7417 24be a3b6 873e 4c9c 7c3b c153 19be
000002f0: 609d 483e 032e 70ba a63d 40be 81bc 26be
00000300: db9f 4e3e 15f4 57be be87 de3d 765b 443d
00000310: 0920 91bd f291 cebd 8924 193e 8f00 6e3d
00000320: 7ca4 34bc 3703 42be 2b73 1f3e 375d ac3e
00000330: 7f56 1fbe 7b77 6b3d 0f5f c33d 347d de3d
00000340: 696b 753e 3f17 183e 9f10 42be 0836 14be
00000350: 628b 2f3e 3e2b 5d3e 4071 eb3d 236f 8e3d
00000360: b265 373e f4cc 71be 7ae0 26be 4f00 e1bb
00000370: 8a11 39be 2eea 75bc 87a4 55bd 61b9 e1bd
00000380: 72df 7f3e 782e 743e acc9 85be f1d4 3a3e
00000390: 5ce2 4fbe 69e6 e5bc c0d3 42be e891 9f3b
000003a0: a117 93be d2df 85be b05a 3c3e 0b6e d8bc
000003b0: af92 843e 969e b0bd adc8 193e 784d 51be
000003c0: 66bd 0cbe f40c ac3d 3d8c 063d 4606 e0bd
000003d0: 4388 d3bd 4114 733e 077e 663e 696f 1e3e
000003e0: 1ccb e53d c315 80bd 96ef 15be cc62 32be
000003f0: 9406 6c3e 6a62 8b3d 219d 0a3e 9ad9 55be
0.11009683 -0.14268322 -0.18094829 -0.18507037 0.08037612 -0.25198883 -0.00922044 -0.061179608
0.35716256 0.21924962 -0.09436186 -0.011306834 -0.27718037 0.2934148 0.06676606 0.14993948
0.13081467 0.30128092 0.038803693 0.13356979 0.38351774 -0.016170964 0.0975385 -0.19923835
0.30414143 -0.114640296 -0.21900077 -0.08267223 0.1802087 -0.0983415 0.061620202 0.10698842
-0.016211826 -0.040071107 -0.19399318 0.017980225 -0.19045308 -0.009220466 0.07642012 0.065530054
-0.13690902 0.044739444 -0.17374817 0.0011199678 0.0111274505 0.1520123 -0.04212075 -0.31518662
0.11871688 -0.06482983 0.09717185 -0.26055753 0.30764675 -0.24508058 0.064054064 -0.14398208
0.080248825 0.15365507 0.0823446 0.13041216 -0.13210134 0.013442783 0.017846502 -0.16758099
-0.024896547 0.305176 0.17282167 -0.16593152 -0.1957084 0.20110238 0.30121142 -0.09078908
-0.073123574 -0.1022432 0.03764788 -0.19772896 -0.1065631 -0.07814262 0.021788606 -0.0062922253
0.1596975 -0.13785815 0.17893708 0.15716325 0.085250795 -0.15555169 -0.041878443 0.0009010909
-0.009282302 -0.018711658 0.10888148 -0.06529478 -0.20708793 -0.20293261 0.060154833 0.13579614
-0.15590444 -0.108250774 -0.22183488 0.13296883 0.009340012 0.06616762 0.0044173687 0.2453515
0.14416395 -0.2331561 -0.046092954 0.16040984 -0.05915339 -0.23113446 0.116494514 -0.08074093
0.088481165 0.12705873 0.15564421 -0.20245159 -0.108332746 -0.054442793 -0.048967488 -0.025064046
-0.03377704 0.35358444 -0.19524421 0.22934428 0.26047072 0.015806813 0.0367362 -0.12063232
-0.10105706 -0.020249505 -0.4181245 0.0722596 0.08591544 0.24765497 0.05798988 -0.20034437
0.21389763 0.18821175 -0.16861321 0.2017885 0.07604761 0.2200477 0.13809748 -0.07447273
-0.06251314 -0.08483218 0.010732232 0.12308031 -0.09071341 0.047527574 -0.074759096 -0.10566797
0.17269959 -0.22572768 -0.24024785 0.051390536 0.14256272 -0.07298374 -0.19734928 -0.15315501
0.040572714 0.120089814 0.033444602 -0.262483 0.12251517 -0.11893944 -0.11609687 -0.01189681
-0.2050635 -0.061950162 0.04357839 0.22922805 0.122292675 -0.006639488 0.105226114 0.3058297
-0.07337742 -0.062487673 0.004270195 0.107267946 0.1747546 -0.13701406 0.14461526 0.21371394
-0.16024572 0.26506528 0.0038545309 -0.14973356 0.19591284 -0.000916213 -0.18773517 -0.16282846
0.20178168 -0.21089204 0.108657345 0.047938786 -0.07086188 -0.100864306 0.14955343 0.058106
-0.011025544 -0.18946539 0.15571277 0.33664867 -0.1556034 0.057486992 0.09539615 0.10863724
0.23966755 0.14852618 -0.18951653 -0.14473736 0.17143014 0.21598527 0.1149621 0.069547914
0.17909887 -0.2361334 -0.16296569 -0.006866492 -0.18073097 -0.015009446 -0.05215886 -0.11021686
0.24987581 0.23845851 -0.26130426 0.18245293 -0.20301193 -0.02806397 -0.19026089 0.0048696883
-0.28728965 -0.26147324 0.1839397 -0.02641966 0.2589316 -0.08623998 0.15017958 -0.20439708
-0.13744125 0.08400908 0.032848585 -0.109386966 -0.10328724 0.23738195 0.22509013 0.15472187
0.11220381 -0.06254151 -0.14642176 -0.174205 0.23049384 0.0680588 0.13536502 -0.2088379

fc1.bias f4 [64]
00000000: d2b3 8abd c371 b5bd 8df5 ed3d e111 4ebb
00000010: bde2 fd3d ff0a e93d 01c5 203e aa2b afbd
00000020: a900 58be f1b3 26be 1682 f93d 489f 633d
00000030: 9c13 1f3e d96b 68be 1511 1bbd efd5 083e
00000040: 3685 183e 60a3 f3bd cef0 9a3d 8bde 623e
00000050: dc3c e03d 8e36 0e3e f593 f53d 0cd3 45bc
00000060: c1ce 5dbc eec9 bebc a824 883d 3917 253e
00000070: 0c9c 303e a1d5 c5bd 5740 373d 0175 83be
00000080: fe9a fe3d cd05 3e3e b414 813e e6e4 9dbd
00000090: 6673 03bc 9bc1 2a3e e710 323e ccd6 0cbe
000000a0: e68c 0dbd 80c2 2b3e ea29 eabd eb7d a9bc
000000b0: 244c d13d 655a 223e d56b 4abe 2a88 973e
000000c0: ec1a 313e 30c2 783e 81f1 8fbd 705f 55be
000000d0: 21a3 563e a0de f03c 7ea9 b1bd 16bb b2bc
000000e0: 2d65 793e 3e0d 173e b249 603b 6f0a 673d
000000f0: 86e5 5c3e c8e6 493e d6e0 323d 860a 2dbe
-0.06772579 -0.08859589 0.11619101 -0.0031443762 0.123967625 0.113790505 0.15700151 -0.0855325
-0.21094002 -0.1627958 0.12183015 0.055571824 0.15534824 -0.2269739 -0.037858088 0.13362859
0.14894566 -0.11896396 0.07565461 0.22155206 0.10949108 0.13887998 0.11991111 -0.012074243
-0.0135380635 -0.023289647 0.066476166 0.1612214 0.17247027 -0.09659887 0.044739094 -0.25675204
0.12431906 0.185569 0.25211108 -0.077096745 -0.008023119 0.16675417 0.1738926 -0.13753814
-0.0345582 0.16773415 -0.11433776 -0.020689925 0.10219601 0.15854795 -0.19767697 0.29596072
0.17295426 0.24292827 -0.07028485 -0.20837188 0.20960666 0.02940303 -0.08674906 -0.021817725
0.24355002 0.14751145 0.0034223613 0.056406435 0.21571931 0.19716942 0.04367145 -0.16898546

fc2.weight f4 [32, 64]
00000000: 7b13 89bd f015 e2bd 8d98 593d 47c2 c13d
00000010: 4956 813d b8b7 323d 96b9 1abd 2554 a7bd
00000020: f249 2abd 5bef 993d bfeb 773c f6e1 873d
00000030: 9a63 0cbe 8030 03be 20bb eabd ec1c c63d
00000040: b179 c1bd 208e 9b3d a5db c6bd 76f7 5d3d
00000050: a5ee 1f3d 0b01 bf3b 104a 0bbe b7e6 9ebd
00000060: 9d76 953c 21ab e4bd 23f6 a9bd aea5 513b
00000070: 3a9d 33bd b0a2 213d f63c ed3b 681b 36bd
00000080: 738a 09be da4e b33d e9c8 c8bd 5a67 c5bd
00000090: 4e8e 33bc 163d 9c3c 1d5a 873d 892f 0abe
000000a0: ad77 b63d 6184 03be 7b7d 0dbe 80e9 df3c
000000b0: eac7 17bd 8073 bbbd 4369 f73b adcc b2bd
000000c0: 5f2e ad3b 0634 a2bd cb30 d1bc c618 a53d
000000d0: 5576 2e3d f648 03bd 8730 53bd 38ef cdbc
000000e0: 6a50 bcbd 7e72 09be 1dcd 2b3b c6f8 86bd
000000f0: 0159 443b e77d 05bd e1d3 f03c b33a 05be
00000100: 45c0 ff3d 8c48 963d 1d1c 913d fa18 233d
00000110: a249 d43c 4bf1 d7bd e622 ecbd b1f2 813d
00000120: 36e2 73bd c59b 9dbd fc84 233e 83b3 933d
00000130: 1147 55be d097 c63d 22ff 0e3d dd60 f9bd
00000140: dec1 76bd 19ad f83d 4f5f 22bd 71a9 bdbc
00000150: 72bd 9c3d aec0 8e3d 986d 1b3e f39e 803d
00000160: ca2e 28be b9ca 1e3e 1554 0b3d a4a0 783e
00000170: 1e3f 71bc 9057 40ba 5949 53bc 7a73 01be
00000180: 1c3b 433d c160 2d3d 3de0 2bbd 5509 0fbd
00000190: d881 a03d 0879 45bc bada 5d3d 5c36 703e
000001a0: 709a aa3d bd38 a43d 5c96 dc3d 8a4d 263c
000001b0: be67 a1b9 a1a3 ac3d 9ac7 b1bd 0516 343d
000001c0: 5cb4 e43d bd51 023e 7c83 1a3e 2932 353d
000001d0: 7dfe 533d 152f cd3d 0b49 073d fb6c a2bc
000001e0: 2c88 f73d 061f 77bd 23b2 e4bc 5964 763c
000001f0: 82e3 a9bb 9a2c 9b3d 0b60 813d 8b3b 81bd
00000200: b796 92bc 1cbd d1bc bef1 663d 5558 93bb
00000210: 3011 1bba 2f02 ddbd f582 ac3d 2b51 42bd
00000220: 61dd 063e 25dd c73c 935a 803d 56b0 223e
00000230: dc6e f2bd 173f 173e 40c1 1dbd 7763 4d3e
00000240: da85 233d 3c14 1f3e 9ed6 98bc f45b e5bd
00000250: e90c 5cbe 5433 8d3d 43df 78bd 64bb 043e
00000260: 1c47 903e df00 37be 6b04 45be ccd5 b33d
00000270: 922c c43c d12d 0abe 6201 f23d c426 4dbb
00000280: 8820 493e 9e91 7e3d 4b78 38bd 832b d93b
00000290: 9ff0 a83d f529 4f3e b5e9 30be e947 27bc
000002a0: 1ad0 6b3d d6a2 413e 16f9 203e 65ac da3c
000002b0: d529 61bc 2d7a e8bd 8d1c bcbd c557 20be
000002c0: 492f 823c 4f85 e7bc 40ea 803e fd91 aebd
000002d0: 2957 df3d 5bea a9bd 025a 183c 1dcc 443d
000002e0: c411 44be 8917 76bd 889d 94bc 574a dcbd
000002f0: b288 42bc ed9a 0f3d 4189 85bb 811e 0bbc
00000300: 6163 d8bc b0a6 e03c 8d55 a4bd e7b8 783c
00000310: b55a b33d 87b0 8ebc ced5 243e ba70 53bd
00000320: 60dd 473c 98b7 483e 88a5 e73c fbbe 6e3d
00000330: 11ad 4ebe fd98 5e3d b0d1 bdbd 660c 013e
00000340: acce 91bd 1be9 56bd 81c5 8cbd 983f 46be
00000350: 835f 90bd 81e8 a1bc f613 adbd 7c0a 463c
00000360: 591d 0a3e efb6 08be 5286 82be 1910 c6bd
00000370: 3944 ecbb bece 093d 4181 213e 0c04 9fbd
00000380: e0b4 9ebd 79ee 563c 3eb2 253e 8e2b 4e3e
00000390: f4e4 0ebd ad5c 533c 999f 223d e75d 32be
000003a0: 528a 3b3d 4574 3e3e c480 ba3c 1c20 5b3e
000003b0: 275c e13d 8a6a 923d f4bd 26be 1e40 33be
000003c0: b940 ca3d ac45 d73d f535 85bd c50a 91bd
000003d0: 01b4 46bc e7c0 bd3b 14f9 a13d 9456 2f3d
000003e0: 6338 42bd 886f 0fbe db07 45be b1cd 693d
000003f0: cc1a e6bd 41cb d63c 5135 6e3c 6a8e 17be
-0.06693169 -0.110393405 0.053124 0.094608836 0.06315286 0.04363224 -0.037774645 -0.08170346
-0.041574426 0.075163566 0.01513189 0.066348955 -0.1370987 -0.1281147 -0.114614725 0.09673485
-0.09447039 0.075954676 -0.097098626 0.054191075 0.03904595 0.0058289818 -0.13602471 -0.07758849
0.018245036 -0.11165453 -0.082989 0.0031989622 -0.043851115 0.03946179 0.007239933 -0.04445973
-0.1343172 0.08755274 -0.098039456 -0.09638853 -0.010959221 0.019072097 0.066089846 -0.13494696
0.08909545 -0.12843467 -0.13817398 0.027333021 -0.037055887 -0.09152889 0.00755039 -0.08730445
0.005285069 -0.07920079 -0.025535962 0.08061366 0.04259332 -0.032052003 -0.05155995 -0.025138482
-0.09195025 -0.13422582 0.0026214786 -0.065904185 0.0029960277 -0.032590773 0.029397907 -0.13010673
0.124878444 0.07338056 0.0708544 0.03981874 0.025914017 -0.1054407 -0.11530094 0.06345118
-0.059541903 -0.07695726 0.15968698 0.072119735 -0.20827891 0.09696925 0.034911282 -0.12176678
-0.06024348 0.12142391 -0.039641675 -0.023152085 0.07653321 0.069703445 0.15178525 0.06280317
-0.16424099 0.1550702 0.034015734 0.2428003 -0.014724521 -0.00073372666 -0.012895905 -0.12641707
0.047663793 0.0423286 -0.041961897 -0.03492101 0.07837266 -0.012052782 0.054163672 0.23458236
0.08330238 0.080186345 0.10770866 0.010150323 -0.00030785607 0.08429647 -0.08680649 0.043966312
0.11167213 0.12726493 0.1508922 0.04423729 0.05175637 0.10018746 0.033028644 -0.019827357
0.120865196 -0.06033232 -0.027916973 0.015038573 -0.0051845917 0.075768664 0.06317147 -0.06310185
-0.017894132 -0.02560287 0.056382887 -0.004496614 -0.0005915342 -0.10791432 0.084234156 -0.04744069
0.13170387 0.024397442 0.06267276 0.1588758 -0.11837551 0.1477016 -0.038514376 0.20057474
0.039922573 0.15535063 -0.018657025 -0.11199179 -0.214893 0.06894556 -0.060759794 0.12962109
0.28179252 -0.17871426 -0.19239967 0.08781013 0.023947034 -0.1349404 0.1181667 -0.0031303624
0.19641316 0.06215059 -0.045036595 0.0066275015 0.0824902 0.20230849 -0.17276652 -0.010210016
0.057571508 0.18909773 0.15720019 0.026693532 -0.013742884 -0.11351428 -0.09185133 -0.15658481
0.015891688 -0.028261809 0.2517872 -0.08523939 0.10905296 -0.08296653 0.009298803 0.04804622
-0.19147402 -0.06008104 -0.018141523 -0.10756367 -0.011873411 0.035059858 -0.0040752 -0.008491159
-0.026414575 0.027423233 -0.0802413 0.015180803 0.08757535 -0.01741816 0.16097185 -0.051621176
0.012198776 0.19601285 0.028277174 0.058287602 -0.20183207 0.05434512 -0.0926851 0.12602386
-0.07119498 -0.0524684 -0.068736084 -0.19360197 -0.070494674 -0.019764187 -0.08451073 0.012087461
0.13487758 -0.13351034 -0.25493103 -0.09671039 -0.007210281 0.03364443 0.15771963 -0.07764444
-0.07749343 0.01311838 0.16181275 0.20133802 -0.034886315 0.012900514 0.039702985 -0.17418633
0.04578621 0.18599041 0.022766478 0.21398968 0.11003905 0.07149227 -0.16283399 -0.17504928
0.09875626 0.10511336 -0.06504432 -0.07082132 -0.012127877 0.005790818 0.07908836 0.042807177
-0.047417056 -0.1400739 -0.19241278 0.05708093 -0.1123558 0.026219966 0.014539079 -0.1480042

fc2.bias f4 [32]
00000000: 6906 e8bc 2c8c 0e3e b7f4 bd3d fb53 c23d
00000010: 1b4c 10bc 4145 f53d ef82 e2bd 1838 6ebc
00000020: e943 24be 3bf8 febc 955f c43c 432e ebbc
00000030: 3fea fdbc a4e6 ad3c f5a2 8a3c bcfe 2abd
00000040: d67a a03d 566c 92bc 174b a9bd 5fac 8fbd
00000050: 1dfa 5ebd 9d78 173e f457 d43d 29d8 acbd
00000060: e184 eebd 8c3f 3abb ff81 3abc 2814 cebc
00000070: 8977 983d aa0a 56bd db09 023d 0460 fb3c
-0.02832337 0.13920659 0.09275191 0.09488674 -0.008807207 0.119761 -0.1106013 -0.014539741
-0.1604153 -0.031124225 0.023971358 -0.028708583 -0.030995486 0.021228142 0.016923407 -0.04174684
0.07835929 -0.017873924 -0.082662754 -0.07015299 -0.054437745 0.14792104 0.10368338 -0.08439667
-0.116464384 -0.0028419225 -0.011383533 -0.025156096 0.074446745 -0.052256264 0.03174768 0.030685432

policy_head.weight f4 [9, 32]
00000000: 462d 1cbe fd35 4b3e 0597 9e3d e0f5 81bd
00000010: b6f9 68bd c9b2 a63a d300 2a3d 64d4 c8bc
00000020: 871a 8fbd 5bb1 72be b1df 87bd 491e c8bd
00000030: f02c f23d 34f2 133e b72b ea3c 4e73 953d
00000040: 66e6 353e 8213 ca3d 5765 c63d e1c5 273e
00000050: 4c6b 803d 351d 13be fdc2 0f3e 901f 31be
00000060: 3613 1d3e a77d 8cbd 8ddc 2fbe 0060 5c3e
00000070: 6d30 dbbd 02a7 593e ef05 74bc ef64 8d3d
00000080: 78bc b8bd 5032 bbbd 71d7 b33d b5c4 8c3e
00000090: 2eec 3ebe b4f8 cb3d ff30 3abe 7de1 11be
000000a0: 70f5 3cbe 1f58 ce3d 5f2b 533e 4b7e ec3d
000000b0: aab9 46be bb46 71be 82ae fa3b 1b46 b9bd
000000c0: e973 293d 2a02 103e c426 2a3e 3d35 9ebd
000000d0: 3c97 383d 7f4d fdbc bd8e 36bd f7ea 1f3b
000000e0: 9aa7 36be 505f 92be 1964 35bd 599d 1ebe
000000f0: cb82 5b3d 536f 9cbe 4777 08be 7727 8d3e
00000100: de31 1c3e 4459 9b3d 2ba9 c7be 85d9 3bbe
00000110: b4c5 83be 96cf 71bd c644 d2bd 4067 3d3e
00000120: 6cb3 81be ad59 25be 7c9c 32be 86c2 b4be
00000130: 651b 083c 6d63 913e 2975 593e c06e c7bd
00000140: ee3a 143e 07c8 bdbd eec9 e83d ee94 0c3e
00000150: 0fef e63d 8276 0c3d 663a e1bc beef bdbb
00000160: 6491 4ebd 185f 88bc 708e a93d 3118 32bd
00000170: 76c2 1d3b 0757 bdbd f91a 4c3d f6d4 c1bd
00000180: 4d54 943d 3b0c f43d 424c 48be 54b8 a8bd
00000190: d82b 3dbe 28ee f2bd ed52 6abd b2ac c93d
000001a0: 3dc4 0f3e f37a 3cbd 9e9b 35be 6810 243e
000001b0: 9423 10bd 7f8e e93d 2736 5b3e 52f8 53be
000001c0: f82d 7fbe d406 b43d f1cf 10be 8c81 57be
000001d0: d28c 9cbe 2fe9 063d 3cc7 2bbe 93b9 1a3e
000001e0: 612d 823e 1756 023e b573 99be 6ca4 51be
000001f0: 5edf 9b3b a564 07be b814 4ebe aed7 463e
00000200: cb93 90bd 8e06 a33d 57b1 f2bd 4abe 83bc
00000210: 05db 3c3d c4d5 08be c923 ebbd b12f 0e3e
00000220: c054 433e 691e 0b3e 0e71 623e 36de b7bd
00000230: 69e5 2ebd 5751 b23d 1950 9e3d b57f 493e
00000240: 00b5 063e 3edd 20be f087 1cbd 2e19 4dbe
00000250: 0a65 89bd b0e1 b33d 3058 523e 8e2c 2cbb
00000260: 34d1 acbd e029 073d 5c2a d9bd 7731 5f3e
00000270: 1382 4a3d 80f6 1cbd 2e49 113e 2062 a8bd
00000280: b3ca dfbd ce91 153e 621c 4c3e a70a 5f3e
00000290: 982b 8a3d 62e6 07bd a055 7f3b dbbe 0b3c
000002a0: 1807 ae3d 0be5 02be 5acb 44be 2d13 693c
000002b0: 2936 b7bc 109d 8cbe 087f d3ba e0bc 013d
000002c0: 4683 67be 9a51 49bd f9c7 f6bc 28de e0bd
000002d0: 3c69 283e cb31 55be 1aa2 8ebd fcaa 813e
000002e0: 70da 1bbe 71ec c8be c321 483e 2d77 cd3d
000002f0: cb0c c3bc 0ea4 3f3e 96c3 60be b8eb 8fbc
00000300: 55e2 23be 230c d4bd 5b0a 6c3e bfb5 c9bd
00000310: 4038 2b3e 59c8 44be b45f 32be 99eb f0bd
00000320: c246 7e3e f349 3ebd 4bd6 7fbe 0d02 dbbd
00000330: a3ac 2abe ce82 e7bd 6572 083d 057f 7e3d
00000340: 2b09 5e3c 708e 213d a0ab c6bc abfe ce3d
00000350: a7f8 223e a2d3 15be c23b 48be 47a3 5b3e
00000360: ec4b 7ebd 1607 88be 38e9 28be f328 1fbe
00000370: da5d 82bc a838 a03d 05eb 5e3e 86cb e43d
00000380: 6fb1 df3d 7c54 e539 565b 6dbe d5f6 023d
00000390: 9c68 5ebd 7def a33d 2015 d5bd 0841 273e
000003a0: 0e8d 17be 8a95 54be d296 61bd 92a3 c13c
000003b0: 8596 1abe 7e63 3abd 2b67 a6bb 18d5 23be
000003c0: 0b21 36be 16bf 3b3e 26ea 5d3d 3b33 ccbd
000003d0: 7220 58be c0e1 86bd 1921 7c3e eaa4 71bd
000003e0: ce19 f83c 16de d9bd af28 13be 2371 1e3d
000003f0: 633e 5d3c 030e ecbd caeb 10bd 48ab 9dbd
-0.15251645 0.19844814 0.077436484 -0.06345725 -0.056878768 0.0012718077 0.041504692 -0.024515338
-0.069874816 -0.23700468 -0.066344626 -0.097714014 0.118249774 0.14447862 0.028585298 0.07297383
0.17763671 0.09867002 0.09687298 0.16384079 0.06270465 -0.1436661 0.14039226 -0.17297196
0.1533936 -0.06859904 -0.17173977 0.21520996 -0.10702596 0.21255115 -0.014893993 0.06904017
-0.090203226 -0.09140456 0.087813266 0.27493826 -0.18644783 0.09959546 -0.18182753 -0.14246173
-0.18453002 0.100754015 0.20622014 0.11547526 -0.19406763 -0.23562138 0.0076501975 -0.09046575
0.041370306 0.14063326 0.1661635 -0.07724998 0.045066103 -0.030920742 -0.04456972 0.0024401525
-0.17837372 -0.28588343 -0.044284914 -0.15489711 0.05359153 -0.30553684 -0.1332675 0.27569172
0.15253398 0.075853854 -0.38996252 -0.18344696 -0.25736773 -0.05903586 -0.10267024 0.18496418
-0.253322 -0.1614749 -0.17442507 -0.3530466 0.008307313 0.28396168 0.212361 -0.09737921
0.14475605 -0.09266668 0.1136664 0.13728687 0.112760656 0.034292705 -0.027493667 -0.0057964018
-0.050431624 -0.016646907 0.08279121 -0.043480102 0.0024072207 -0.09245115 0.04983041 -0.09464447
0.072426416 0.11916395 -0.1956034 -0.08238283 -0.18473756 -0.11861831 -0.05720799 0.09847392
0.14039703 -0.04601569 -0.17735144 0.16021883 -0.03519018 0.11404132 0.21407376 -0.20700195
-0.2491988 0.08790365 -0.14141823 -0.21045512 -0.30576187 0.032937225 -0.1677522 0.15109853
0.25425246 0.12728153 -0.2997109 -0.20472878 0.004756852 -0.13221987 -0.20125091 0.19418213
-0.07059439 0.079602346 -0.11850231 -0.016081948 0.04610731 -0.13362795 -0.11481435 0.1388538
0.19075298 0.1358582 0.2211344 -0.0897793 -0.04269925 0.087069206 0.07730121 0.19677623
0.13154984 -0.15709397 -0.038215578 -0.20029137 -0.06708725 0.08783281 0.20541453 -0.0026271674
-0.0843834 0.03299892 -0.106037825 0.21796213 0.049440455 -0.03832102 0.14188072 -0.08221841
-0.10927334 0.14606401 0.19932702 0.21781407 0.06746596 -0.033178695 0.0038960949 0.00852939
0.08497447 -0.12782685 -0.19218197 0.014225763 -0.022364693 -0.2746358 -0.0016135881 0.031674266
-0.2260867 -0.049150087 -0.030124651 -0.10979873 0.16446394 -0.20819776 -0.06964512 0.25325763
-0.15220046 -0.3924289 0.19544129 0.100324966 -0.023809811 0.18714926 -0.2194961 -0.017568454
-0.16004308 -0.103538774 0.23050825 -0.098491184 0.16720676 -0.19217052 -0.1741932 -0.11763687
0.2483168 -0.046457242 -0.2498409 -0.106937505 -0.16667418 -0.11304246 0.03331222 0.062132854
0.0135519905 0.03944248 -0.024251759 0.10107168 0.15915166 -0.14631513 -0.19554046 0.21449004
-0.062084123 -0.26567906 -0.16495216 -0.15542965 -0.015913893 0.07823306 0.2176934 0.111716315
0.10922515 0.0004374123 -0.23179373 0.03197368 -0.054298982 0.08004663 -0.1040442 0.16333401
-0.14799902 -0.2076017 -0.055075474 0.023637567 -0.15096481 -0.04550504 -0.0050782165 -0.15999258
-0.17786042 0.18334612 0.05417838 -0.09970709 -0.21106127 -0.06586027 0.24622001 -0.058995165
0.030285742 -0.10638063 -0.14370988 0.038682114 0.013503644 -0.1152611 -0.035381116 -0.07698685

policy_head.bias f4 [9]
00000000: 4daa c5bd b62a 483d 9695 0f3e 169c a1bc
00000010: 756a 20bd 8387 35bd 6481 203e d7a1 aabd
00000020: 2a6d 303c
-0.09651623 0.048868857 0.14021906 -0.019727748 -0.039164025 -0.044318687 0.15674359 -0.0833165
0.010768214

value_head.0.weight f4 [16, 32]
00000000: fa6c 40bd 6713 8dbd 2146 24be 8efb 253d
00000010: fc0f ff3d 47a4 983b eee6 ca3d 3a5e 0abe
00000020: 7c0e 933d 3fc2 43bd 891e 0fbe be74 113e
00000030: 3a9c 70bd f328 acbd a4fe 533d 0c44 acbd
00000040: 52ab d53d 836f a1bd 975b 093e 9c1c 693c
00000050: 1521 fcbd 65fa 80bd 43c9 60be 05f7 d43d
00000060: 2569 c3bd d604 4bbd ecf9 e33d bcb1 56be
00000070: c289 023d 93cd b13d d7fc 49bd f88a a53d
00000080: a5b3 383e 756c c93d 9737 243e 3873 aebb
00000090: 2555 d1bd d9cc 9e3c ac01 a6bc 44b6 cf3d
000000a0: 4865 f6bd 9c73 ce3c 9549 9abd 79cf a33d
000000b0: a7af 6abd 3dce 3b3e 75ef 54bc 5d5a ce3d
000000c0: 8ae0 f6bd 7282 873e 3a2b f03d c6c9 45bd
000000d0: 8c82 153e 6b39 863d 0b6e b13c 28fb 4abe
000000e0: b2d6 b4bc 04bc 16be 9b11 a0bc 0c5d 043e
000000f0: 8f1f 733e bbb1 c03c efd5 b23c ea4a 603e
00000100: b4b3 d4bd 77e3 e5bd f808 debd cad5 cebd
00000110: 6c72 bfbc 38dd 213e f14c 79bd f663 b2bd
00000120: e4fa 65bd f69a 12be a421 ccbd bd9f 8abd
00000130: 3b37 16be 8072 a0bd 197f bf3b a0bf a03d
00000140: 8e8a b1bd 23cd 30bd f7d2 9ebd 6071 1cbe
00000150: 9482 8abc 9c22 0ebe cc74 31be 9627 ad3d
00000160: aba4 633d 9bed 84bd 03f9 a43d 0541 fa3c
00000170: f47f ddbd 090c 2f3e 3f98 c7bd 342e 41bc
00000180: dd5b e4bd 3200 28be b566 9e3d 196f 863d
00000190: 59cc bf3d fcd0 76bd 4720 053e 7808 223d
000001a0: 3273 953c b2b1 d0bd 7879 b2bd 8a50 0abe
000001b0: e083 903b 46d6 37be bb02 16bc 62f1 0b3e
000001c0: bcc9 3cbe 2892 be3d 147d 5e3d a8cf 97bc
000001d0: f37f 91bd 791b a1bd 84ff febc 73c5 31bd
000001e0: e27e a4bd 2299 cebc d723 41be bb0e 9dbd
000001f0: 1736 e93d 04d2 d13d 1d27 923c a92d 34be
00000200: 3f2f ad3d 4884 363e 18e6 25be d245 f3bd
00000210: 9c64 883d 95a5 0cbe 3dd0 b1bc 2f8e de3c
00000220: 8bd8 a13d 173f 9bbd 7fbd 903a f08a 103d
00000230: 9c18 323e 1a16 973d f75c b9bd cdd0 e1bc
00000240: acac 66bd d374 54be ae0f 293e f6b4 c9bd
00000250: 7322 973d fab8 313e 8013 62bd eea3 4f3d
00000260: a8ec fe3d 4bdb d53d b10b e2bc 29d3 033e
00000270: 8824 b3bd 87e0 a6bc 01b5 3a3e 6cd7 be3d
00000280: a5da 1c3d 9724 babd 4faa 84bc cc0f d5bd
00000290: ac7a fd3d e478 c3bd 81ce 923c 46f3 b63c
000002a0: 445d 10be e701 ffbd 87b1 4fbd e913 d5bd
000002b0: b40a 9a3b 1b26 d7bc ec83 7ebc f3dd a0bd
000002c0: 8cb3 ca3c 8e0b abbd 3b1d 093e 64e1 70bd
000002d0: 17f2 173d fadf a439 174c bebc 915c 753d
000002e0: 9c0c 1fbe 5e3c 523c 777a d53d c7d7 653d
000002f0: b72b f8bd 0cfe fdbd a4ac 12be 8a8d 243d
00000300: d37a 173c 4875 5fbe 1730 1b3e 9099 4e3d
00000310: 472d 79bd 5f7e 5abe 78d3 28bd e46d 2abe
00000320: 6c80 0cbc 7fc4 cabd 23f8 a63d 26d8 ed3d
00000330: 2100 9a3d 12f7 adbd 3c48 ef3c 01f3 0c3e
00000340: 587b b43d f6e7 0e3e 9392 dcbd 362c 4b3e
00000350: 5348 aebd cde9 1cbc eb01 06be c4ab 873e
00000360: 4e99 24be 548a 07bd 4cba 84bd 36dc 853d
00000370: 83a8 53be 723e 363e 3c54 a13d defd 74bd
00000380: ede6 623d 40e9 bdbd 2536 37be 10f2 b53d
00000390: b6e0 983d f2e1 9b3d 6db0 d2bc 3245 aebc
000003a0: 78f9 cd3d aa7e c13d c265 023e 33a3 213e
000003b0: 07f1 18b9 b47d ee3d 9099 273e 980f 7fbd
000003c0: fc1f 8e3d 95b8 2cbe 98f2 5dbd 5945 b5bd
000003d0: d9bf 74bd 0b4e df3d 235b 0d3e c04a 9d3e
000003e0: 9119 01be d203 d43d 6c8b 26be 1d25 1d3e
000003f0: c6ef 50be 216f 0ebd 0891 d93d f0b5 953d
-0.04697893 -0.06888466 -0.16042377 0.040523104 0.12454221 0.0046582553 0.099073276 -0.13512507
0.07180497 -0.04779267 -0.13976492 0.1420469 -0.05874274 -0.08406248 0.051756516 -0.084114164
0.104330674 -0.07882597 0.13413845 0.014228012 -0.123109974 -0.06297759 -0.21951775 0.10398678
-0.09541539 -0.04956516 0.11131653 -0.20966238 0.031869657 0.08681788 -0.049313392 0.08083147
0.18037279 0.0983514 0.16036831 -0.0053237937 -0.10221318 0.019384788 -0.02026447 0.10142186
-0.120310366 0.025201611 -0.07533566 0.07998557 -0.05729642 0.18340392 -0.012996544 0.10075829
-0.12054546 0.2646671 0.11726995 -0.04828813 0.14600581 0.0655392 0.021658918 -0.19822371
-0.022075031 -0.1472016 -0.019539645 0.1292612 0.23742507 0.023522248 0.021830527 0.21903577
-0.10385838 -0.11225026 -0.108415544 -0.10099371 -0.02336999 0.15807045 -0.060864393 -0.08710472
-0.05614747 -0.14316925 -0.09967354 -0.06768749 -0.14669506 -0.07834339 0.0058440086 0.078490496
-0.08669005 -0.043164384 -0.07755082 -0.15277624 -0.016907968 -0.1388039 -0.1732971 0.08454816
0.05557696 -0.06490632 0.08055308 0.030548582 -0.10815421 0.17094435 -0.097458355 -0.011790801
-0.11150334 -0.16406325 0.077344336 0.06564159 0.09365148 -0.060257897 0.13000594 0.039558858
0.018243406 -0.10190143 -0.087145746 -0.13507286 0.004410252 -0.17952833 -0.009155924 0.13666299
-0.1843633 0.09305221 0.054318503 -0.018531635 -0.071044825 -0.07866568 -0.031127699 -0.043401193
-0.080320135 -0.025219504 -0.18861328 -0.07668825 0.1138727 0.102451354 0.017840916 -0.17595543
0.08456277 0.17823899 -0.16201055 -0.118785515 0.06659815 -0.1373504 -0.021705741 0.027167408
0.079026304 -0.07580393 0.0011042802 0.03528875 0.173922 0.073772624 -0.09050935 -0.027565384
-0.056317016 -0.2074769 0.16509888 -0.09848969 0.073796175 0.17355719 -0.055194378 0.050693445
0.12447482 0.104422174 -0.027593466 0.1287352 -0.08747202 -0.020370735 0.1823311 0.09318432
0.038294453 -0.0908901 -0.01619449 -0.10403404 0.123769134 -0.095445424 0.017920734 0.022332799
-0.14098078 -0.12451535 -0.050706413 -0.10404188 0.004700983 -0.026263287 -0.015534382 -0.078548335
0.024743818 -0.08351813 0.13390057 -0.0588087 0.03709611 0.00031447393 -0.023229642 0.05990273
-0.15532154 0.0128317755 0.10423749 0.056113984 -0.12117713 -0.12401971 -0.1432367 0.040174045
0.009245592 -0.21822083 0.15155064 0.050439417 -0.060834195 -0.21337269 -0.041217297 -0.16643482
-0.00857554 -0.0990076 0.08152797 0.11613493 0.07519556 -0.084943905 0.029209249 0.13764574
0.088125885 0.13955674 -0.10770144 0.19841084 -0.085098885 -0.009577227 -0.13086669 0.26498234
-0.16074106 -0.033090904 -0.06480846 0.065361425 -0.20669751 0.17797258 0.078773946 -0.05981242
0.05539601 -0.092730045 -0.17891748 0.088840604 0.07464735 0.07611455 -0.025718892 -0.02127323
0.10057348 0.094479874 0.1273413 0.15784912 -0.0001458564 0.1164507 0.16367173 -0.06227073
0.06939694 -0.16867287 -0.054186434 -0.08851118 -0.059753273 0.109035574 0.13804297 0.30721092
-0.12607409 0.10352291 -0.16264123 0.15346189 -0.20403966 -0.03477395 0.10623366 0.073100924

value_head.0.bias f4 [16]
00000000: c9f5 afbd 5d95 023e 6426 51bc fd4d 3cbd
00000010: 3f86 973d 86c4 64bc e487 18be 84fe f13d
00000020: 876c d03d 7a9e 10be 9099 07bd 4617 373e
00000030: b6c1 b8bd 063b a9bd 5cba 2fbd 992e c3bd
-0.08591802 0.1275229 -0.012765501 -0.045972813 0.07398652 -0.01396287 -0.14895588 0.11816123
0.1017695 -0.14122954 -0.033105433 0.17879972 -0.090213224 -0.08263211 -0.042902336 -0.09530372

value_head.2.weight f4 [1, 16]
00000000: 1e10 443e 7f64 5ebe 4b3e 39be fcc5 d43b
00000010: 58f5 8a3e effb 543d 0259 1c3e 820e 933e
00000020: 151f 01be 3cc0 913d aa72 483d 4cb7 87be
00000030: 67c9 58be b86c 60be a697 30be 9dd8 893d
0.19146773 -0.21718024 -0.18090169 0.006493328 0.27140307 0.051998075 0.15268329 0.28722006
-0.12609513 0.07116744 0.048937477 -0.26507032 -0.21170579 -0.21916473 -0.1724535 0.06730769
