model2_20250703_215252_final.pth (torch, 20958 bytes, 9 tensors)

fc1.weight f4 [64, 19]
0.15910874 -0.25848153 0.25545633 -0.022947216 -0.0438866 -0.0074970955 -0.046488367 0.24264863
-0.48803112 -0.20813532 -0.18601413 0.5230925 0.0042950395 -0.07628457 0.19490603 -0.52043086
-0.2984033 0.48192996 -0.077854 -0.30548993 -0.2195991 0.44757798 -0.09229518 -0.064822055
-0.28969765 -0.5803272 0.48532104 0.23484093 0.25944772 -0.17748384 -0.15716176 0.398303
0.0066803535 0.34352922 0.28220364 0.38181955 -0.38626575 -0.15304631 -0.4567125 0.05578839
0.4956377 -0.24867772 0.091200836 0.48186168 -0.5243609 -0.4683049 0.1315843 -0.2521185
-0.13959397 0.2260807 -0.023381058 0.06706927 -0.15141296 0.680185 0.39954853 0.24310556
-0.004355719 -0.12603977 0.14597352 -0.4487519 0.14951274 -0.044817425 -0.19866504 -0.28769827
-0.06993851 0.24793041 -0.32203007 0.44142732 -0.20231584 0.61886173 -0.3880161 0.079728134
0.08286943 0.32711115 -0.3732261 -0.11313672 0.2082082 0.21417832 0.075040735 -0.60984504
-0.06369873 -0.62545556 0.10885666 -0.0024790792 -0.20404013 -0.08166982 0.07241094 -0.05927232
-0.19833116 -0.034046836 -0.5180863 0.3842727 0.38244423 0.32697073 0.028286504 -0.005560658
0.026791155 -0.23176737 -0.035693683 -0.39141122 -0.5462315 0.11229831 0.05771414 0.25001648
0.7142467 -0.5831104 -0.33722782 0.54017967 -0.14845258 -0.17763741 0.42797694 0.031471778
-0.2803386 -0.14219598 -0.047006432 -0.2451391 0.08575722 -0.47645319 -0.6240343 0.006720671
0.12036614 0.78471273 0.35139713 0.16911314 -0.110276796 0.054453906 0.2638549 0.40359887
-0.02849214 -0.42009708 0.060731225 -0.35874748 -0.053473715 -0.42523655 0.016030587 0.40546024
-0.35501912 -0.19753751 0.5274152 -0.60007674 0.27948105 0.40493947 0.25889048 0.10622358
-0.15223755 0.35874447 0.21397875 0.02945332 0.13230927 -0.2508452 0.01223179 -0.008815231
-0.3498242 0.19751346 -0.52723604 -0.0613675 -0.20265354 0.15011743 -0.64066064 0.38116997
-0.019561037 -0.41058958 -0.001740996 0.72092867 -0.16530846 0.5971979 -0.46701658 0.76476854
-0.20322487 -0.5562194 0.16486992 -0.013864232 -0.22218435 -0.038777296 0.15251058 -0.25080797
0.29991338 0.23354413 -0.15285724 -0.071026616 -0.33294728 0.69851226 0.5323012 -0.3855353
0.34788996 0.44563776 -0.51225215 0.4127938 0.36911777 -0.1000843 -0.35121766 -0.033930894
-0.12429379 0.31340188 0.19282469 0.40597847 -0.32960188 0.057342462 -0.047651935 0.18870966
0.0008145149 0.44207042 -0.44769946 -0.27532727 -0.020147728 -0.0667932 -0.07743108 0.4836913
-0.15299197 0.06544403 -0.34720692 -0.3629088 -0.13333248 -0.22788061 0.28237736 0.11577463
-0.42896432 0.016244924 0.17984444 0.23030654 -0.5857543 0.310412 0.43284443 -0.43281698
0.4379425 0.1715037 -0.31695327 0.1985764 0.11994656 -0.570319 -0.34110197 0.20833948
-0.30077887 0.0373341 0.21268629 0.37212166 -0.18854827 0.24832554 0.37404856 0.030830042
0.38569698 0.19927438 -0.5898605 0.3391383 -0.41779876 -0.25736418 -0.24202098 -0.044154473
0.3523139 -0.32155004 0.119117625 0.31832412 -0.13579558 -0.32958 0.08415302 -0.36600026
00000000: 67ed 223e b157 84be 2ccb 823e cdfb bbbc
00000010: 6fc2 33bd 32aa f5bb 966a 3ebd e278 783e
00000020: 37df f9be 6d21 55be 7d7a 3ebe 64e9 053f
00000030: 67bd 8c3b 163b 9cbd 7295 473e f53a 05bf
00000040: 51c8 98be 86bf f63e eb71 9fbd 2d69 9cbe
00000050: 96de 60be f128 e53e 4105 bdbd 6dc1 84bd
00000060: 4053 94be 5390 14bf 007c f83e 247a 703e
00000070: 55d6 843e 53be 35be 03ef 20be 5fee cb3e
00000080: dee6 da3b 10e3 af3e ff7c 903e da7d c33e
00000090: a0c4 c5be 2cb8 1cbe 39d6 e9be 5e82 643d
000000a0: 3ac4 fd3e 5fa5 7ebe 81c7 ba3d 93b6 f63e
000000b0: 843c 06bf a9c5 efbe 09be 063e ad15 81be
000000c0: b9f1 0ebe b381 673e a289 bfbc 9d5b 893d
000000d0: 000c 1bbe 9b20 2e3f a091 cc3e aaf0 783e
000000e0: 6bba 8ebb 9210 01be 157a 153e cfc2 e5be
000000f0: de19 193e 7a92 37bd d96e 4bbe 304d 93be
00000100: ec3b 8fbd 78e1 7d3e 20e1 a4be c302 e23e
00000110: e22b 4fbe b96d 1e3f 0caa c6be 8148 a33d
00000120: 73b7 a93d 1d7b a73e 7e17 bfbe 3ab4 e7bd
00000130: 8834 553e 9051 5b3e f5ae 993d ce1e 1cbf
00000140: 7b74 82bd db1d 20bf 3ef0 de3d 0c78 22bb
00000150: e5ef 50be 8242 a7bd 304c 943d 88c7 72bd
00000160: 5317 4bbe b274 0bbd 4ea1 04bf 64bf c43e
00000170: bbcf c33e b568 a73e 19b9 e73c 2e36 b6bb
00000180: 2079 db3c 6d54 6dbe 8a33 12bd 0d67 c8be
00000190: d4d5 0bbf a8fc e53d a965 6c3d 2902 803e
000001a0: dfd8 363f b946 15bf 20a9 acbe 3749 0a3f
000001b0: f403 18be 95e6 35be cb1f db3e 8de8 003d
000001c0: 8a88 8fbe d39b 11be d189 40bd bf05 7bbe
000001d0: 7ba1 af3d acf1 f3be b6c0 1fbf 1339 dc3b
000001e0: 8682 f63d efe2 483f 53ea b33e ff2b 2d3e
000001f0: cdd8 e1bd 0f0b 5f3d fd17 873e 83a4 ce3e
00000200: 5968 e9bc f716 d7be 4ec1 783d c0ad b7be
00000210: 4107 5bbd 9bb8 d9be 9452 833c 7c98 cf3e
00000220: 11c5 b5be 4647 4abe af04 073f a19e 19bf
00000230: 2418 8f3e 3a54 cf3e 4b8d 843e c08b d93d
00000240: 29e4 1bbe 5bad b73e 3f1d 5b3e 1748 f13c
00000250: 157c 073e c86e 80be d967 483c c26d 10bc
00000260: 281c b3be f840 4a3e f1f8 06bf 7d5c 7bbd
00000270: 6984 4fbe 62b8 193e 5602 24bf b628 c33e
00000280: 783e a0bc cc38 d2be 2232 e4ba c88e 383f
00000290: 9f46 29be f6e1 183f cc1c efbe dfc7 433f
000002a0: 2e1a 50be 6564 0ebf a9d3 283e ce26 63bc
000002b0: 4b84 63be f1d4 1ebd bc2b 1c3e e769 80be
000002c0: 3f8e 993e 3126 6f3e 9c86 1cbe 6776 91bd
000002d0: 1178 aabe b3d1 323f e444 083f e264 c5be
000002e0: a21e b23e a22a e43e f522 03bf b559 d33e
000002f0: 01fd bc3e fff8 ccbd cdd2 b3be 1ffb 0abd
00000300: be8d febd 3676 a03e d673 453e 69dc cf3e
00000310: 94c1 a8be eedf 6a3d ad2e 43bd 1b3d 413e
00000320: 2b85 553a 0e57 e23e dd38 e5be b2f7 8cbe
00000330: d90c a5bc e0ca 88bd 3094 9ebd 63a6 f73e
00000340: eda9 1cbe 8507 863d 1bc5 b1be 2fcf b9be
00000350: 4f88 08be 8959 69be c493 903e 401b ed3d
00000360: 36a1 dbbe 1314 853c 2429 383e 7ad5 6b3e
00000370: fef3 15bf 52ee 9e3e c99d dd3e 309a ddbe
00000380: 003a e03e aa9e 2f3e b347 a2be 9d57 4b3e
00000390: 8ba6 f53d 6d00 12bf eba4 aebe f256 553e
000003a0: b0ff 99be a4eb 183d 6fca 593e bb86 be3e
000003b0: cc12 41be 0d49 7e3e 4b83 bf3e 498f fc3c
000003c0: 137a c53e 950e 4c3e 1901 17bf 89a3 ad3e
000003d0: b8e9 d5be 3dc5 83be 59d4 77be 52db 34bd
000003e0: 7d62 b43e 35a2 a4be f1f3 f33d 61fb a23e
000003f0: ff0d 0bbe b6be a8be 6b58 ac3d 6364 bbbe

fc1.bias f4 [64]
-0.45930654 -0.5586275 -0.533687 -0.06673052 -0.4421988 -0.50427353 -0.6503452 -0.32805955
-0.7844023 -0.42115945 -0.56215376 -0.39863625 -0.5038862 -0.4601311 -0.47584087 -0.5271213
-0.37216806 -0.47815737 -0.43364382 -0.6635558 -0.41520414 -0.61724913 0.10354175 -0.6753707
-0.7514897 -0.123315364 -0.43444434 -0.07314178 0.049045447 -0.4323078 -0.81865877 -0.5872501
-0.36539096 -0.22301592 -0.29467368 -0.48952523 -0.6146456 -0.2039789 -0.37059957 0.2767777
-0.578572 -0.2946961 -0.36150256 0.18456805 -0.35756934 -0.74068093 -0.3216007 -0.35165167
-0.4328443 -0.17580843 -1.0691853 -0.6108219 -0.4179034 -0.34447062 -0.6182609 -0.6274614
-0.6424819 0.07046349 -0.48532727 -0.31933096 -0.39081356 -0.3164722 -0.6091649 0.063418694
00000000: 3a2a ebbe 3602 0fbf b69f 08bf 03aa 88bd
00000010: e267 e2be 1218 01bf 067d 26bf 6cf7 a7be
00000020: 97ce 48bf 36a2 d7be 4fe9 0fbf 0d1a ccbe
00000030: b0fe 00bf 4e96 ebbe 6aa1 f3be 6cf1 06bf
00000040: d08c bebe 0bd1 f4be 9006 debe cbde 29bf
00000050: a395 d4be 0a04 1ebf b20d d43d 18e5 2cbf
00000060: a161 40bf c48c fcbd 7d6f debe 5ccb 95bd
00000070: e1e3 483d 7357 ddbe 9f93 51bf 0656 16bf
00000080: 8614 bbbe 495e 64be 78df 96be 0da3 fabe
00000090: 6a59 1dbf d8df 50be 3abf bdbe cfb5 8d3e
000000a0: 4b1d 14bf 68e2 96be dd16 b9be 68ff 3c3e
000000b0: 5413 b7be 449d 3dbf d9a8 a4be b00b b4be
000000c0: c59d ddbe 2007 34be 10db 88bf d35e 1cbf
000000d0: 6ff7 d5be 745e b0be 5946 1ebf 4fa1 20bf
000000e0: b279 24bf 2a4f 903d d17c f8be 597f a3be
000000f0: b718 c8be a508 a2be 3bf2 1bbf a9e1 813d

fc2.weight f4 [32, 64]
0.24394709 0.15689144 0.33248147 0.31321585 0.38187292 0.22932264 -0.3685753 0.14897348
0.020011295 0.15631479 -0.15412262 0.18014708 -0.06233067 -0.25815022 0.26323563 0.25456476
-0.088918716 0.22747867 -0.33380798 0.10266895 -0.29860255 0.22230136 0.01906646 -0.14003164
0.14255588 0.04821832 0.004391176 0.0056488663 -0.47799075 0.10634312 0.18054253 -0.4295162
-0.2027913 0.25993276 0.2631882 0.123964086 0.011467591 -0.15785947 0.18423055 0.19731295
0.34379756 -0.31378376 -0.127152 -0.2570835 -0.2009861 0.021234034 -1.157325 0.14736167
0.29700255 -0.18262653 -0.16499701 -1.0297309 0.26243153 0.22886889 -0.3105864 0.1559096
0.23492466 0.056999043 -0.5093589 0.31014088 -0.5830765 -0.05378681 -0.4682531 -0.15970595
-0.09587053 0.19640248 0.53871197 -0.05298407 0.34664455 0.54539895 0.1216092 0.13404295
0.32120654 0.221288 -0.10459744 0.04486427 0.04950219 -0.2854018 -0.2551527 0.037122425
-0.3747909 0.2875393 0.25076857 -0.11340165 0.2712792 0.34758928 -0.36938336 -0.06483658
0.33583343 -0.03810425 -0.20814091 0.1271474 0.0042057657 -0.41040304 -0.34442765 -0.16831759
-0.4751268 -0.19684881 0.007163962 0.18504731 -0.03236533 -0.13656047 -0.9360102 -0.12007055
-0.21874873 -0.14826748 -0.08437521 -0.8899003 0.029043077 -0.47142327 0.36830813 0.25781775
-0.2759873 -0.052625682 0.025061172 0.38688618 0.2287069 0.26079932 -0.5693223 0.4158547
0.21932122 -0.41249424 -0.24413575 0.28591216 -0.17757466 -0.03736748 -0.34997222 -0.16548438
0.24887893 0.08487424 0.2672953 -0.18169685 0.70645493 -0.38241336 -0.08512987 -0.25504723
0.55630314 0.57827127 0.009515044 -1.2263303 -0.14171825 0.41086835 -0.21402583 -0.10657456
-0.071430795 0.06851238 0.2749722 0.29712313 -0.12824926 0.6096191 -0.081583545 0.021443162
0.23258154 0.2783048 -0.13742916 0.093311094 0.21978101 0.3588103 0.15017936 -1.1231047
-0.018037213 -0.36941254 -0.12901896 0.15225673 0.18420275 -0.009794841 0.078155 -0.18938512
-0.42123523 -0.49118212 0.3009364 -0.3366547 -0.070893906 0.1129756 0.40486 0.19314982
-0.44845128 -0.084972195 0.118007645 -0.17462258 0.4222478 0.18090151 0.033996385 -0.13374479
-0.32571456 0.0093116565 0.39901713 0.18831524 -0.1912486 0.10230149 -0.41413307 -0.124654576
-0.0030860957 -0.07208326 -0.43969786 -0.12293245 -0.66601664 0.19154918 0.07472922 -1.2022853
-0.6420147 0.24945185 -0.0063143005 0.3218946 0.10064627 -0.23675916 0.54387033 -0.022653146
-0.21992007 0.5855913 -0.5758403 0.002235797 0.10984603 0.066783056 -0.1003534 0.19222549
0.4203128 0.037033595 0.020555025 -0.107791245 -0.06461129 -0.04667382 -0.18633988 0.34561935
-0.22809757 -0.41104552 0.23943983 -0.023083044 -0.21022075 0.36799297 -0.13324471 -0.29871652
-0.049735844 0.34302494 -0.6256174 -0.7190741 -0.88305223 0.16295564 -0.008584776 0.18426907
0.16938037 -0.28588924 0.16706781 0.0031337892 0.22061852 0.018126218 -0.18187004 -0.3117443
-0.6025703 -0.3049859 -0.1497462 0.10422136 0.035485882 -0.53852475 -0.36690563 -0.3268306
00000000: 44cd 793e 26a8 203e 033b aa3e d45d a03e
00000010: d984 c33e 8ed3 6a3e e7b5 bcbe 818c 183e
00000020: baee a33c fc10 203e 52d2 1dbe 7a78 383e
00000030: 724e 7fbd 442c 84be d2c6 863e 5056 823e
00000040: 041b b6bd 2bf0 683e e1e8 aabe 1944 d23d
00000050: 6fe2 98be f8a2 633e 4431 9c3c 7464 0fbe
00000060: 2bfa 113e 9380 453d dbe3 8f3b 201a b93b
00000070: 34bb f4be 6cca d93d 24e0 383e 8ce9 dbbe
00000080: 86a8 4fbe e815 853e 9bc0 863e e2e0 fd3d
00000090: 90e2 3b3c eaa5 21be efa6 3c3e 680c 4a3e
000000a0: 3c06 b03e 44a8 a0be 2234 02be 73a0 83be
000000b0: 4dcf 4dbe fff2 ad3c 3a23 94bf fae5 163e
000000c0: b810 983e 7302 3bbe faf4 28be 39ce 83bf
000000d0: 6d5d 863e 9b5c 6a3e 2e05 9fbe c4a6 1f3e
000000e0: 1790 703e d477 693d 5865 02bf c9ca 9e3e
000000f0: 8044 15bf 8f4f 5cbd dfbe efbe f589 23be
00000100: c557 c4bd bb1d 493e 07e9 093f d305 59bd
00000110: 657b b13e 449f 0b3f 3f0e f93d 8e42 093e
00000120: 2f75 a43e 5299 623e 2f37 d6bd 99c3 373d
00000130: cfc2 4a3d 2f20 92be 60a3 82be af0d 183d
00000140: 98e4 bfbe 5a38 933e bd64 803e 203f e8bd
00000150: 1be5 8a3e 39f7 b13e d11f bdbe 0ac9 84bd
00000160: 5cf2 ab3e 3413 1cbd e422 55be ee32 023e
00000170: 85d0 893b 5920 d2be d258 b0be 725b 2cbe
00000180: d243 f3be bc92 49be abbf ea3b 0b7d 3d3e
00000190: 8291 04bd 82d6 0bbe 5d9e 6fbf 8ce7 f5bd
000001a0: abff 5fbe 6ed3 17be e9cc acbd 82d0 63bf
000001b0: bfeb ed3c 645e f1be e292 bc3e b000 843e
000001c0: 354e 8dbe 078e 57bd 164d cd3c f215 c63e
000001d0: 2432 6a3e 7d87 853e 1bbf 11bf e8ea d43e
000001e0: be95 603e 7232 d3be b9fe 79be 1463 923e
000001f0: 22d6 35be a50e 19bd 8f2f b3be bd74 29be
00000200: 1eda 7e3e 8cd2 ad3d eeda 883e bd0e 3abe
00000210: 3bda 343f afcb c3be 9258 aebd 8d95 82be
00000220: e269 0e3f 9609 143f fde4 1b3c 64f8 9cbf
00000230: 971e 11be 565d d23e 9629 5bbe c343 dabd
00000240: 4f4a 92bd 3850 8c3d 28c9 8c3e 8620 983e
00000250: c653 03be ff0f 1c3f 4615 a7bd 92a9 af3c
00000260: db29 6e3e f77d 8e3e 3bba 0cbe e319 bf3d
00000270: 460e 613e fcb5 b73e 9ec8 193e e5c1 8fbf
00000280: c7c2 93bc a423 bdbe 8c1d 04be 30e9 1b3e
00000290: a59f 3c3e 8a7a 20bc bb0f a03d 2cee 41be
000002a0: 25ac d7be 397c fbbe 5614 9a3e 015e acbe
000002b0: d330 91bd c05f e73d cf49 cf3e 11c9 453e
000002c0: 689b e5be e705 aebd fead f13d 43d0 32be
000002d0: dd30 d83e 3f3e 393e cb3f 0b3d 65f4 08be
000002e0: 0fc4 a6be eb8f 183c f94b cc3e b6d5 403e
000002f0: acd6 43be 7283 d13d 4009 d4be e64a ffbd
00000300: 1840 4abb 63a0 93bd 1420 e1be 02c4 fbbd
00000310: 1180 2abf 7825 443e a20b 993d 7ce4 99bf
00000320: 135b 24bf 4e70 7f3e 31e8 cebb 5ecf a43e
00000330: a21f ce3d fe70 72be 163b 0b3f 1793 b9bc
00000340: ba32 61be 50e9 153f 456a 13bf 7386 123b
00000350: f5f6 e03d 8ec5 883d 1586 cdbd c2d6 443e
00000360: 3d33 d73e 8ab0 173d 0363 a83c a8c1 dcbd
00000370: ed52 84bd 0c2d 3fbd e2cf 3ebe 05f5 b03e
00000380: 6992 69be 8f74 d2be b72f 753e a718 bdbc
00000390: 1c44 57be 9369 bc3e 4d71 08be 5ff1 98be
000003a0: d0b7 4bbd f7a0 af3e 7628 20bf 3d15 38bf
000003b0: b60f 62bf d8dd 263e 29a7 0cbc 08b1 3c3e
000003c0: 0c72 2d3e 1360 92be d313 2b3e 4260 4d3b
000003d0: d2e9 613e 6f7d 943c 243c 3abe f39c 9fbe
000003e0: 0c42 1abf 1d27 9cbe 1157 19be 0272 d53d
000003f0: a559 113d c2dc 09bf 0edb bbbe 5756 a7be

fc2.bias f4 [32]
0.021155834 -0.5062568 -0.29092872 -0.34507957 -0.17200147 -0.60948867 -0.21712838 -0.19359736
-0.4746994 -0.16841348 -0.45734793 -0.39066726 -0.5109466 -0.63514674 -0.10903492 -0.18296723
0.09535523 0.16055234 -0.1397569 -0.43905678 -0.17408006 -0.18289934 -0.30247283 -0.22807398
-0.27438644 0.23862529 -0.08633725 0.07896097 -0.40025875 -0.5499291 -0.36776698 -0.19489649
00000000: 004f ad3c 0c9a 01bf 9cf4 94be 45ae b0be
00000010: 2721 30be 7307 1cbf e756 5ebe 633e 46be
00000020: cd0b f3be 9574 2cbe 8229 eabe 8a05 c8be
00000030: 65cd 02bf fa98 22bf b34d dfbd c35b 3bbe
00000040: 9a49 c33d d567 243e 6f1c 0fbe 0dcc e0be
00000050: 0b42 32be f749 3bbe b8dd 9abe 3a8c 69be
00000060: 617c 8cbe 305a 743e 96d1 b0bd 4ab6 a13d
00000070: b7ee ccbe 27c8 0cbf f44b bcbe f292 47be

policy_head.weight f4 [9, 32]
-0.028831432 -0.08371778 -0.19722462 -0.5273305 -0.10003658 0.36799958 -0.018302055 -0.28242424
-0.11225747 -0.22442812 -0.44821852 -0.28631032 -0.07293016 -0.3926053 0.019821687 0.12474976
0.097423784 -0.40867853 -0.12502049 0.06633042 0.11699828 -0.48642835 -0.099359974 0.53602904
-0.05241513 -0.12819259 0.14070527 0.6258847 0.34687304 0.04947883 -0.18132061 -0.1622706
-0.07510715 -0.3881249 0.05532127 0.43923494 -0.0150059145 -0.120914765 -0.18152905 -0.14576976
0.14311725 -0.2882493 -0.3794036 -0.5273365 0.02528247 0.008196159 -0.10178364 -0.44350815
0.24230082 -0.14497368 -0.005937436 0.1702569 -0.12079257 -0.2342893 -0.13545404 0.2903457
0.08899051 0.20257495 0.15405664 -0.13718063 -0.23036109 -0.31307054 -0.35324585 -0.08056999
-0.29463091 -0.47287625 0.008208008 -0.52744144 -0.20825636 -0.12769662 -0.27326903 0.3896588
-0.0690271 0.3628647 -0.16018026 0.04154493 0.3528484 -0.2782385 0.21421851 -0.104234375
0.1124632 0.15223712 -0.15619105 -0.067830555 -0.1397968 -0.1438698 -0.35580376 0.33557177
0.20947367 0.0016380498 -0.15172614 -0.23891461 -0.34797302 -0.2923171 -0.32554314 -0.08377723
-0.042268258 0.24608095 -0.21037555 -0.12581334 -0.23862201 -0.015800059 -0.20013061 -0.27538168
-0.31342286 -0.30020666 -0.03841891 -0.18513626 -0.1801747 -0.33787966 0.08428064 -0.064636484
-0.05343732 -0.3482305 0.47136578 0.16736685 -0.084804304 -0.20582648 0.3850465 -0.028809559
-0.021941453 0.10841019 -0.13485272 0.37956002 -0.040136736 0.018342713 0.07816405 -0.21379834
-0.024347186 -0.36798123 -0.0788331 0.07023209 0.025416065 0.5857953 -0.08243574 -0.1260215
-0.007973235 0.09632454 -0.16853714 -0.17493755 0.18247253 -0.07019981 0.18864538 -0.31717336
-0.30278507 0.2991008 -0.009908118 0.010426716 -0.03610518 0.08612651 -0.15752316 -0.30983472
0.22137599 0.13781795 -0.07144887 -0.38809124 0.071870476 0.005121039 0.27951595 -0.20333602
-0.119007125 0.11944874 -0.1465152 -0.2814304 -0.08337184 0.0068498887 0.39192668 0.19396007
-0.32909647 -0.21395265 -0.13041379 0.42672423 -0.319809 -0.06728304 -0.09953676 -0.1735565
-0.040314708 -0.05360683 -0.18569642 0.06809773 0.08731962 -0.29317635 0.174719 -0.31621087
0.1118649 0.13985449 -0.15100083 -0.17572522 -0.06438133 -0.31420365 0.14440349 -0.18801779
-0.0055240323 0.515668 -0.10092626 -0.19524948 -0.18880418 -0.33395955 -0.043566577 -0.43710506
-0.1680499 0.30435497 0.03905655 0.08200064 0.22244017 -0.4622764 0.16097157 0.250366
-0.19192699 0.0013144482 -0.0881077 -0.035105012 -0.06156315 0.29263437 -0.061707377 0.09270855
0.020724382 0.04292123 -0.29393277 0.35196027 -0.23411503 0.13453726 -0.24035804 0.14177784
0.0062740506 0.13344565 -0.057798967 0.4018612 0.07005702 -0.39847293 -0.093153566 -0.19712637
-0.024241813 -0.2967521 -0.032147966 -0.38588196 -0.34574258 0.22391164 -0.1822514 -0.3432244
-0.19114248 0.16923362 0.102757655 -0.04759698 -0.103208534 0.3088258 -0.10353027 -0.26769564
0.018531937 0.16626261 0.08843951 -0.029515447 -0.2915944 0.2151393 -0.082441226 0.21897846
00000000: e52f ecbc 3a74 abbd 40f5 49be 22ff 06bf
00000010: fadf ccbd 716a bc3e 31ee 95bc e999 90be
00000020: 3fe7 e5bd 7cd0 65be e67c e5be 4497 92be
00000030: 685c 95bd 9003 c9be 1761 a23c cd7c ff3d
00000040: 1f86 c73d 503e d1be 5f05 00be 3ed8 873d
00000050: cb9c ef3d 230d f9be 3e7d cbbd 3339 093f
00000060: 3fb1 56bd eb44 03be 0b15 103e fb39 203f
00000070: 5899 b13e 50aa 4a3d 1cac 39be 442a 26be
00000080: c7d1 99bd 4fb8 c6be 8e98 623d 67e3 e03e
00000090: 5edb 75bc 29a2 f7bd c0e2 39be ab44 15be
000000a0: 548d 123e 6a95 93be 3041 c2be 86ff 06bf
000000b0: 2f1d cf3c 2f49 063c f173 d0bd 8013 e3be
000000c0: b51d 783e fb73 14be d38e c2bb d357 2e3e
000000d0: 1862 f7bd 89e9 6fbe 77b4 0abe 31a8 943e
000000e0: a840 b63d cf6f 4f3e 06c1 1d3e 1479 0cbe
000000f0: c7e3 6bbe c84a a0be a4dc b4be e101 a5bd
00000100: ddd9 96be d61c f2be e17a 063c 6706 07bf
00000110: 2841 55be e7c2 02be ebe9 8bbe 5c81 c73e
00000120: 155e 8dbd 67c9 b93e 4b06 24be 042b 2a3d
00000130: 8ca8 b43e 4775 8ebe 195c 5b3e d578 d5bd
00000140: 1b53 e63d 0ce4 1b3e 8cf0 1fbe bfea 8abd
00000150: e426 0fbe 9b52 13be e92b b6be 10d0 ab3e
00000160: 4480 563e d5b3 d63a 195e 1bbe 08a6 74be
00000170: 8529 b2be 96aa 95be 97ad a6be 6593 abbd
00000180: 7b21 2dbd a5fc 7b3e b06c 57be 36d5 00be
00000190: 5459 74be 206f 81bc 0aef 4cbe d4fe 8cbe
000001a0: f678 a0be b0b4 99be 265d 1dbd 5c94 3dbe
000001b0: b77f 38be 90fe acbe 549b ac3d 2260 84bd
000001c0: 17e1 5abd 454b b2be db56 f13e 3762 2b3e
000001d0: e1ad adbd 2dc4 52be d124 c53e 0602 ecbc
000001e0: 90be b3bc 2906 de3d d516 0abe b155 c23e
000001f0: 6b66 24bd 7543 963c 7914 a03d f4ed 5abe
00000200: c073 c7bc 0968 bcbe 4073 a1bd d8d5 8f3d
00000210: 5a35 d03c aef6 153f 12d4 a8bd c80b 01be
00000220: 2ca2 02bc cd45 c53d 0095 2cbe d422 33be
00000230: 14da 3a3e ebc4 8fbd 412c 413e 8c64 a2be
00000240: a506 9bbe bd23 993e a955 22bc d1d4 2a3c
00000250: 06e3 13bd 1863 b03d c04d 21be a8a2 9ebe
00000260: 63b0 623e 2620 0d3e c953 92bd e5b3 c6be
00000270: d430 933d 64ce a73b b71c 8f3e 5137 50be
00000280: 02ba f3bd 8aa1 f43d 1508 16be a517 90be
00000290: dbbe aabd 0875 e03b 9daa c83e 789d 463e
000002a0: 557f a8be 6716 5bbe 318b 05be 997b da3e
000002b0: 01be a3be b1cb 89bd eed9 cbbd ccb8 31be
000002c0: 0921 25bd d692 5bbd 3427 3ebe d376 8b3d
000002d0: a1d4 b23d 361b 96be 8ae9 323e 64e6 a1be
000002e0: 6d19 e53d 0436 0f3e f69f 1abe 50f1 33be
000002f0: 5cda 83bd 4ddf a0be 82de 133e bc87 40be
00000300: f102 b5bb d102 043f 6db2 cebd 7bef 47be
00000310: e255 41be bffc aabe de72 32bd 3ccc dfbe
00000320: 4615 2cbe 6ad4 9b3e c3f9 1f3d f4ef a73d
00000330: 5bc7 633e 7eaf ecbe bbd5 243e f92f 803e
00000340: 8288 44be 9049 ac3a cf71 b4bd 46ca 0fbd
00000350: a429 7cbd 2cd4 953e e0c0 7cbd fbdd bd3d
00000360: 2ec6 a93c 2cce 2f3d 5b7e 96be 2334 b43e
00000370: dabb 6fbe 23c4 093e 6b20 76be 362e 113e
00000380: 8d96 cd3b faa5 083e 9cbe 6cbd c0c0 cd3e
00000390: 0e7a 8f3d a504 ccbe 4cc7 bebd 7fdb 49be
000003a0: c496 c6bc e4ef 97be 96ad 03bd 5292 c5be
000003b0: 2c05 b1be 1849 653e 1ca0 3abe 1cbb afbe
000003c0: dbba 43be 944b 2d3e 9b72 d23d 0df5 42bd
000003d0: ff5e d3bd 6a1e 9e3e ae07 d4bd 670f 89be
000003e0: 4ad0 973c bf40 2a3e c61f b53d 61ca f1bc
000003f0: dc4b 95be 7a4d 5c3e f2d6 a8bd e43b 603e

policy_head.bias f4 [9]
0.08732782 -0.09215597 0.025290303 -0.039060216 0.12126756 -0.06388521 -0.021452468 -0.1292928
-0.023450706
00000000: eed8 b23d 45bc bcbd 9c2d cf3c 9bfd 1fbd
00000010: 205b f83d 40d6 82bd 16bd afbc 5565 04be
00000020: b21b c0bc

value_head.0.weight f4 [16, 32]
-0.30308965 -0.2804174 -0.19423172 0.38643417 0.071096785 0.6951432 -0.45631945 0.009771694
0.45534667 0.4111166 0.11411364 -0.3672897 0.26786128 -0.10734828 -0.016804444 -0.015412541
-0.3960732 -0.6838043 -0.2768367 0.226713 0.07208561 0.2563435 0.08331103 -0.07344813
-0.043910004 -0.26084223 -0.11610169 -0.08376386 0.14424273 -0.009969455 0.9619481 -0.0894507
-0.32364976 0.028977226 0.070989855 -0.18067929 -0.60609543 0.11580972 -0.44065535 0.1149297
0.22629404 0.34952563 0.11427249 0.7227555 0.13917486 0.45154983 -0.22154829 0.19782674
0.21261881 0.068993516 -0.47806454 -0.95774114 0.15330812 0.47001165 -0.11531938 -0.09412389
0.2311609 -0.5074471 0.16094546 -0.085826576 -0.4469406 0.632968 0.16948697 -0.6768994
0.058067076 -0.022534594 -0.098732166 0.05000136 -0.20195843 -0.050358474 0.045359816 -0.05684503
0.031474773 0.111688234 -0.1232868 0.059477445 -0.08047381 -0.12798172 0.024669277 -0.07509768
-0.05514068 -0.00040407837 -0.19535784 -0.113612354 -0.034554034 -0.11999976 -0.077593826 -0.043159258
0.16810264 -0.018453375 -0.06264547 -0.12618254 -0.256243 -0.05097441 -0.028220883 -0.21152668
0.17185877 0.615328 -0.1284599 -0.4508947 -0.3158205 -0.11883433 -0.014006287 -0.3732041
0.35727233 0.04809252 0.3656816 -0.07872326 0.48670423 0.1630864 0.17306885 -0.0612095
-0.20738742 -0.047462143 0.1354205 -0.52341336 -0.08866539 0.4086395 0.5077892 0.39521307
-0.3012384 -0.37596712 -0.25626987 0.06943964 0.20534205 0.45221004 0.10751508 -0.34346735
-0.03328807 -0.12505627 -0.11111814 0.04412824 -0.1874987 -0.02351165 -0.009926218 -0.09043191
-0.18499367 0.049809232 0.058666572 0.049907424 -0.1107425 -0.22921272 -0.14900154 -0.16777909
-0.1804873 0.08672982 -0.14391632 0.05120281 -0.14963396 -0.23506272 -0.19448292 -0.1939286
-0.024785511 -0.07192088 -0.124875166 -0.1001723 -0.011309788 0.08618546 0.022296837 -0.1853897
-0.17587216 0.26249143 0.36088017 -0.24346063 -0.23176897 -0.3673709 -0.7439059 0.1643267
-0.97065455 0.30652732 0.15883434 0.46814305 0.18121031 0.40331113 0.026412362 -0.24553101
0.0068433736 -0.38240835 -0.052296445 0.117734 0.040682055 0.41601056 -0.054192964 -0.011312827
0.1872746 -0.18144548 -0.043001037 0.015724871 -0.5304837 0.25998336 0.6220728 -0.029154152
0.40998998 -0.093217425 0.32712507 0.18586649 0.2752233 0.47497496 -0.113940276 0.046589505
-0.7867453 -0.3426045 0.52128553 -0.2924391 -0.33166584 -0.56486905 0.27772552 -0.10449861
0.24313115 -0.012334752 -0.1453798 0.3667445 0.18073018 -0.009589936 -0.42300883 -0.004796057
0.07270048 -0.43617454 -0.70839983 -0.3429619 -0.05494051 0.38368544 -0.5188055 -0.1761701
0.1237835 -0.16052994 0.038042895 0.5435 0.25218818 -0.18237127 -0.12046288 -0.247986
0.5902596 -0.4662769 -0.21208343 0.44317144 0.198756 0.008919697 0.035676274 -0.60304797
-0.5062412 -0.07310525 -0.6755042 0.30705398 -0.01618958 0.2844388 -0.30375922 -0.41024274
-0.16004258 -0.1996277 -0.19703275 0.08632218 -0.4734235 -0.20708106 -0.15062669 -0.011633836
00000000: 912e 9bbe df92 8fbe aee4 46be b3da c53e
00000010: 319b 913d e8f4 313f b4a2 e9be 7519 203c
00000020: 3323 e93e e07d d23e 69b4 e93d 650d bcbe
00000030: 1d25 893e 6ad9 dbbd 79a9 89bc e284 7cbc
00000040: 1bca cabe cc0d 2fbf 8abd 8dbe 7427 683e
00000050: 9fa1 933d 753f 833e f99e aa3d f96b 96bd
00000060: fada 33bd 1d8d 85be b9c6 edbd 638c abbd
00000070: 5eb4 133e ed56 23bc 3b42 763f ee31 b7bd
00000080: 6cb5 a5be a661 ed3c 2163 913d fe03 39be
00000090: 1229 1bbf a52d ed3d 949d e1be 4360 eb3d
000000a0: a0b9 673e 06f5 b23e b207 ea3d 8106 393f
000000b0: db83 0e3e 8a31 e73e 8edd 62be 1893 4a3e
000000c0: bfb8 593e 794c 8d3d e0c4 f4be 862e 75bf
000000d0: cefc 1c3e 5ea5 f03e 912c ecbd 07c4 c0bd
000000e0: 71b5 6c3e 0ee8 01bf e3ce 243e d8c5 afbd
000000f0: 66d5 e4be 310a 223f fe8d 2d3e 4749 2dbf
00000100: bed7 6d3d 789a b8bc 1734 cabd 3ace 4c3d
00000110: 31ce 4ebe b044 4ebd 37cb 393d 56d6 68bd
00000120: b1eb 003d cdbc e43d ca7d fcbd 9f9e 733d
00000130: 74cf a4bd a40d 03be 3917 ca3c d0cc 99bd
00000140: 32db 61bd 7bda d3b9 e30b 48be 98ad e8bd
00000150: 8888 0dbd 6fc2 f5bd 83e9 9ebd c3c7 30bd
00000160: 1923 2c3e 882b 97bc 454c 80bd ff35 01be
00000170: 4832 83be 8bca 50bd 7b2f e7bc 739a 58be
00000180: bffb 2f3e 2386 1d3f fe8a 03be acdb e6be
00000190: 39b3 a1be 6a5f f3bd a07a 65bc 9c14 bfbe
000001a0: 66ec b63e aafc 443d 9e3a bb3e a939 a1bd
000001b0: 4c31 f93e 1f00 273e f638 313e d0b6 7abd
000001c0: 5e5d 54be aa67 42bd acab 0a3e 6bfe 05bf
000001d0: 3396 b5bd 3239 d13e 79fe 013f 5e59 ca3e
000001e0: eb3b 9abe c37e c0be ce35 83be 5f36 8e3d
000001f0: 3045 523e 1388 e73e de30 dc3d f4da afbe
00000200: 1259 08bd c00e 00be e891 e3bd d0bf 343d
00000210: a9ff 3fbe 819b c0bc 93a1 22bc 5d34 b9bd
00000220: fb6e 3dbe c404 4c3d 5c4c 703d ba6b 4c3d
00000230: f7cc e2bd bdb6 6abe dc93 18be 48ce 2bbe
00000240: aad1 38be 679f b13d cd5e 13be 0aba 513d
00000250: a539 19be 48b4 70be 8826 47be 3895 46be
00000260: fc0a cbbc 414b 93bd 8dbe ffbd 2327 cdbd
00000270: b04c 39bc 0182 b03d dba7 b63c ccd6 3dbe
00000280: d517 34be 4765 863e 49c5 b83e be4d 79be
00000290: d854 6dbe 0a18 bcbe 9e70 3ebf 4245 283e
000002a0: d17c 78bf 26f1 9c3e 78a5 223e 72b0 ef3e
000002b0: 328f 393e cc7e ce3e bd5e d83c 7b6c 7bbe
000002c0: 613e e03b 07cb c3be cc34 56bd 861e f13d
000002d0: 3aa2 263d 56ff d43e 71f9 5dbd 6f59 39bc
000002e0: eac4 3f3e d8cc 39be db21 30bd 72d1 803c
000002f0: c8cd 07bf 8a1c 853e 2a40 1f3f b0d4 eebc
00000300: 35ea d13e c7e8 bebd f07c a73e c953 3e3e
00000310: 12ea 8c3e eb2f f33e 8559 e9bd a3d4 3e3d
00000320: 2468 49bf db69 afbe f872 053f 94ba 95be
00000330: 1bd0 a9be 429b 10bf 0a32 8e3e 5e03 d6bd
00000340: 5ff7 783e b317 4abc 71de 14be efc5 bb3e
00000350: 5511 393e 1b1f 1dbc 9d94 d8be 3e28 9dbb
00000360: fde3 943d 4552 dfbe b159 35bf b498 afbe
00000370: 4d09 61bd 6b72 c43e 70d0 04bf ef65 34be
00000380: 3482 fd3d f661 24be ded2 1b3d d122 0b3f
00000390: cf1e 813e 89bf 3abe 3eb5 f6bd 0bf0 7dbe
000003a0: 411b 173f d9bb eebe 662c 59be 5ee7 e23e
000003b0: b186 4b3e ec23 123c 4921 123d 5a61 1abf
000003c0: 0699 01bf 35b8 95bd d8ed 2cbf 2e36 9d3e
000003d0: 03a0 84bc f6a1 913e 5486 9bbe 560b d2be
000003e0: 34e2 23be 346b 4cbe f4c2 49be afc9 b03d
000003f0: 9164 f2be 0f0d 54be e23d 1abe d89b 3ebc

value_head.0.bias f4 [16]
-0.40103137 0.14796805 -0.33603615 -0.7273416 -0.1121828 0.059100218 0.08898883 -0.38361534
-0.87037647 0.031381104 0.18619436 -0.65854335 0.009248898 0.07185067 -0.26532054 0.0438601
00000000: fc53 cdbe f084 173e ee0c acbe 0f33 3abf
00000010: 19c0 e5bd 1213 723d c73f b63d 3b69 c4be
00000020: fed0 5ebf 7989 003d bca9 3e3e 4c96 28bf
00000030: b188 173c 7226 933d 18d8 87be a6a6 333d

value_head.2.weight f4 [1, 16]
0.26088563 0.2718258 -0.042539317 0.84549206 -0.0078100297 0.13314477 -0.19204693 0.38813996
0.9883309 -0.12170876 0.07478984 0.6527384 -0.1900679 -0.04424344 -0.43632174 -0.053947296
00000000: cd92 853e c02c 8b3e b53d 2ebd 2b72 583f
00000010: 47eb ffbb 1a57 083e f3a7 44be 48ba c63e
00000020: 4103 7d3f 7142 f9bd 6a2b 993d dd19 273f
00000030: 29a1 42be 9c38 35bd 9065 dfbe d7f7 5cbd
