model2_20250707_152217_final.pth (torch, 20958 bytes, 9 tensors)

fc1.weight f4 [64, 19]
0	0x3e43347b	0.19062988
1	0xbd5fe69d	-0.05466329
2	0xbe4f9e7d	-0.20275302
3	0xbe633906	-0.22189721
4	0x3d89ec47	0.067345195
5	0xbe9aa700	-0.30205536
6	0xbd8ab929	-0.06773598
7	0xbd6f9d66	-0.058499716
8	0x3ed2a896	0.41144246
9	0x3e31bdd9	0.17357577
10	0xbe11cd08	-0.1423837
11	0xbd28798b	-0.041131537
12	0xbec0e907	-0.37677786
13	0x3ef14a63	0.47127065
14	0x3e41fb81	0.18943597
15	0x3df39243	0.118931316
16	0x3e49717b	0.19672196
17	0x3e1d134e	0.15339395
18	0xbdd08550	-0.10181677
19	0x3e8a59d1	0.2702165
20	0x3f08a12a	0.53370917
21	0xbd7733ac	-0.060352013
22	0x3dc49781	0.095992096
23	0xbe363ff3	-0.17797832
24	0x3e560771	0.20901276
25	0xbe900876	-0.28131455
26	0xbe918e10	-0.28428698
27	0xbd777b47	-0.0604203
28	0x3eb4195b	0.35175595
29	0xbe20e8ec	-0.15713853
30	0x3df0b313	0.11752906
31	0x3e1c667e	0.15273473
32	0x3ccde9c2	0.025135878
33	0xbd40dd44	-0.047086015
34	0xbea1e36a	-0.31618816
35	0x3cc733f0	0.024316758
36	0xbe9ab9cb	-0.30219874
37	0x3d93f3b2	0.072242156
38	0xbd8d7b47	-0.06908279
39	0x3e202c43	0.15641885
40	0xbe2ee706	-0.17080316
41	0x3e181525	0.14851816
42	0xbe780ec4	-0.24224383
43	0x3e167158	0.14691675
44	0xbd9ca85c	-0.076492995
45	0x3dd24777	0.10267537
46	0xbbcd1353	-0.006258407
47	0xbefd5417	-0.49478218
48	0x3e27239c	0.16322178
49	0xbda60e96	-0.08108251
50	0x3d1bca9b	0.038035017
51	0xbe3ee3ef	-0.18641637
52	0x3ef9abf0	0.4876399
53	0xbeae44ba	-0.3403681
54	0x3c3f2bb7	0.011668137
55	0x3ca5b279	0.020226704
56	0x3e21bd3d	0.15794845
57	0x3ea8a9b2	0.32941967
58	0x3c09c899	0.008409643
59	0x3e827721	0.25481513
60	0xbeb5639d	-0.3542756
61	0xbd98eb8b	-0.07466801
62	0xbd4f16f1	-0.050558988
63	0xbe2882f7	-0.16456209
64	0xbd074903	-0.033028614
65	0x3ea1010b	0.31446108
66	0x3e113635	0.14180835
67	0xbe774d8e	-0.24150679
68	0xbe70309c	-0.23456043
69	0x3e7dc810	0.24783349
70	0x3ec5da4c	0.3864311
71	0xbe48b046	-0.19598493
72	0xbdb93554	-0.09043375
73	0x3d9d7e29	0.07690079
74	0x3d6c104b	0.057632726
75	0xbe45a023	-0.19299369
76	0xbe3ca79a	-0.1842331
77	0xbe2b30ce	-0.16717836
78	0x3e670103	0.2255898
79	0xbe31c576	-0.17360482
80	0x3df6d82b	0.120529495
81	0xbe60a3e2	-0.21937516
82	0x3e954fb4	0.2916237
83	0x3e9780d6	0.29590482
84	0x3c868a9e	0.01642352
85	0xbddf7cc0	-0.10912466
86	0xbd4ca7c1	-0.04996467
87	0x3e066eeb	0.1312825
88	0xbd820136	-0.06347887
89	0xbcbdb75c	-0.023158722
90	0x3dfd735b	0.12375518
91	0xbd1c923f	-0.03822541
92	0xbe99b364	-0.30019677
93	0xbe72952a	-0.23689714
94	0x3def1ee0	0.11675811
95	0x3e07a121	0.1324506
96	0xbe8aa014	-0.27075255
97	0x3cc1ee7f	0.023673294
98	0xbe88d565	-0.26725307
99	0x3eb7a20a	0.35865813
100	0x3c5bee62	0.013423534
101	0x3dfcb2aa	0.12338765
102	0xbcc43ce2	-0.023954812
103	0x3d7639ce	0.06011372
104	0x3e12faf5	0.14353545
105	0xbe4f3682	-0.20235637
106	0x3c168cb0	0.009188816
107	0x3de1c910	0.11024678
108	0xbd1932c5	-0.037401933
109	0xbe965f26	-0.29369467
110	0x3e5eba83	0.21750836
111	0x3d5adc6c	0.053432867
112	0xbe0df8ea	-0.13864484
113	0x3dce9761	0.10087467
114	0x3e20003a	0.15625086
115	0xbe24d443	-0.16096596
116	0xbd9fd04c	-0.07803401
117	0x3bb5234d	0.00552789
118	0x3bbf4845	0.0058374726
119	0xbc64f68d	-0.013974798
120	0xbda5743b	-0.0807881
121	0x3ea5cf9a	0.3238495
122	0xbe89d869	-0.2692292
123	0x3ecb1a51	0.39668515
124	0x3e94fd72	0.29099613
125	0x3d9de599	0.07709808
126	0x3d5850b2	0.052811332
127	0xbe8a75a2	-0.27042872
128	0xbe1ee607	-0.15517436
129	0x3c1d6fc9	0.009609171
130	0xbf24d360	-0.6438503
131	0x3e389683	0.18026166
132	0x3d041994	0.032250956
133	0x3e95ab51	0.29232267
134	0x3c226fb1	0.009914325
135	0xbe9660d7	-0.29370758
136	0x3ea11edd	0.3146886
137	0x3e7be085	0.24597366
138	0xbe6e13da	-0.2324976
139	0x3e73965f	0.23787831
140	0x3decb66d	0.115582325
141	0x3e545545	0.20735653
142	0x3e3c8fc2	0.18414214
143	0xbe611a0c	-0.21982592
144	0xbe089a74	-0.13340169
145	0xbe100b64	-0.14066845
146	0x3d54dc78	0.051968068
147	0x3e9036f9	0.2816694
148	0xbd6a01ba	-0.057130553
149	0x3df17edb	0.11791774
150	0xbe4ca8ae	-0.19986221
151	0xbe0a5763	-0.13509898
152	0x3e5f9d30	0.21837306
153	0xbe8697cb	-0.26287684
154	0xbe6683bc	-0.2251119
155	0x3da827e3	0.08210733
156	0x3e10e4e1	0.1414981
157	0xbd047a63	-0.03234328
158	0xbe77b30d	-0.24189396
159	0xbe7f5e95	-0.24938424
160	0x3d99c72f	0.075086944
161	0x3e6e4958	0.23270166
162	0x3cae3b84	0.021268614
163	0xbe73a92b	-0.23795001
164	0x3e2d2733	0.16909485
165	0xbe0f1cba	-0.13975802
166	0xbd9ce5f2	-0.07661046
167	0xbdb58b5d	-0.08864472
168	0xbe80fcef	-0.25192973
169	0xbe034e50	-0.12822843
170	0x3d028b15	0.03187092
171	0x3d9a9f02	0.075498596
172	0x3e920036	0.28515786
173	0xbe267814	-0.16256744
174	0x3e5dad8d	0.21648236
175	0x3eb6cd77	0.35703632
176	0xbe38c3d8	-0.18043458
177	0xbe46fd5b	-0.19432585
178	0x3d8d546f	0.0690087
179	0x3e6557e2	0.22396806
180	0x3e51df4d	0.20495339
181	0xbec13247	-0.3773367
182	0x3e62ec28	0.22160399
183	0x3ebabbb8	0.36471343
184	0xbe1d692f	-0.15372156
185	0x3e916092	0.2839399
186	0x3d859462	0.065224424
187	0xbe90f4aa	-0.28311664
188	0x3e5c75cd	0.21529312
189	0x3cb2dbd5	0.02183334
190	0xbe10e2e9	-0.1414906
191	0xbde057f3	-0.10954275
192	0x3de7139f	0.11283039
193	0xbe87333a	-0.2640627
194	0x3d81f8f4	0.06346312
195	0x3e155f2a	0.14587083
196	0xbcab340c	-0.020898841
197	0xbe124c16	-0.14286837
198	0x3dbb9310	0.09158909
199	0x3d2fe916	0.042946897
200	0xbe07dd73	-0.1326807
201	0xbe4c271d	-0.19936796
202	0x3e055c29	0.13023438
203	0x3ec7caa3	0.39021787
204	0xbd7399fa	-0.059473015
205	0x3da91b1e	0.08257125
206	0x3e17533d	0.14777847
207	0x3dbeb519	0.093118854
208	0x3ea5419b	0.32276616
209	0x3de0174b	0.10941943
210	0xbe4d4b18	-0.20048177
211	0xbeab1481	-0.3341408
212	0x3ebb5d8b	0.36594805
213	0x3ef622d0	0.48073435
214	0x3d636997	0.05552062
215	0xbc2d4bd0	-0.010577157
216	0x3e39a4be	0.1812925
217	0xbe6849e0	-0.22684431
218	0xbe7be8dc	-0.24600548
219	0x3dccdb18	0.10002726
220	0xbdd93c80	-0.106072426
221	0xbd95b223	-0.073093675
222	0xbdd8bf23	-0.105833314
223	0xbe4649d8	-0.19364107
224	0x3e814e3c	0.25255
225	0x3e91fca7	0.2851307
226	0xbeb182fa	-0.3467024
227	0x3dd48035	0.10376016
228	0xbe6069a8	-0.21915305
229	0x3d447534	0.047963336
230	0xbeb55eff	-0.3542404
231	0x3e108e64	0.14116818
232	0xbe86e64e	-0.26347584
233	0xbe8f06e1	-0.27934936
234	0x3e14a2ae	0.14515182
235	0x3e0848ff	0.13309096
236	0x3e0f877d	0.14016528
237	0xbe202515	-0.15639146
238	0x3e452f0e	0.19256231
239	0xbe079f0c	-0.13244265
240	0xbe5394f1	-0.20662285
241	0x3e677cb9	0.22606172
242	0x3cd2eeae	0.025748577
243	0xbe0cdadb	-0.13755362
244	0xbe186c3c	-0.14885038
245	0x3e2f1f15	0.171017
246	0x3e71b20d	0.23603077
247	0x3e07d341	0.1326418
248	0x3e44a546	0.19203672
249	0xbd56d444	-0.052448526
250	0xbe977ff9	-0.29589823
251	0xbe6bcd15	-0.23027451
252	0x3e85901f	0.26086518
253	0x3c1fb6e4	0.009748194
254	0x3e5e93e7	0.21736108
255	0xbe095336	-0.13410649

fc1.bias f4 [64]
0	0xbe288ddd	-0.16460367
1	0xbd22a668	-0.03970948
2	0x3dc5038d	0.09619818
3	0xbd94a279	-0.07257552
4	0x3de4bc47	0.111687236
5	0x3e0d6f51	0.13811995
6	0x3e3ea7f1	0.18618752
7	0xbd7f08a7	-0.06226411
8	0xbe70fb0a	-0.23533264
9	0xbe566924	-0.20938545
10	0x3dec02f3	0.11524
11	0x3e002c24	0.12516838
12	0x3e1dcb12	0.15409496
13	0xbe442a12	-0.19156674
14	0xbd39777d	-0.04527997
15	0x3da09168	0.07840234
16	0x3e20cc3d	0.1570291
17	0xbe172a9b	-0.14762346
18	0x3dc1577c	0.094405144
19	0x3e2b0139	0.16699685
20	0x3dfba400	0.1228714
21	0x3e1c161a	0.15242806
22	0x3df9b231	0.121921904
23	0x3c5e1a99	0.013556146
24	0xbd5f9b85	-0.054591674
25	0xbd502ed6	-0.050825916
26	0x3da78ba4	0.08180931
27	0x3e20b35c	0.1569342
28	0x3e0ec182	0.13941005
29	0xbe3756e9	-0.17904247
30	0x3d73ad5f	0.05949151
31	0xbe9e27d7	-0.3088977
32	0x3dbfa169	0.093569584
33	0x3e69d537	0.22835241
34	0x3eb32244	0.3498708
35	0xbd6d4c18	-0.057933897
36	0xbda6077e	-0.08106898
37	0x3df36532	0.11884536
38	0x3e0bc2cf	0.13648532
39	0xbd958a9b	-0.073018275
40	0xbdc6b9c2	-0.09703399
41	0x3d578443	0.05261637
42	0xbd674c0b	-0.056469005
43	0xbc7fec35	-0.015620281
44	0x3d0e4870	0.03473705
45	0x3e2fe091	0.17175509
46	0xbe3bbfb6	-0.1833485
47	0x3e923903	0.2855912
48	0x3e25a422	0.16175893
49	0x3e8a885e	0.27057165
50	0xbe2e83ba	-0.17042437
51	0xbe293d87	-0.16527377
52	0x3e8bdd44	0.2731725
53	0x3ce1b054	0.0275499
54	0xbe0d4764	-0.13796765
55	0xbd8ed05d	-0.06973336
56	0x3e8828a0	0.26593494
57	0x3e65ebfc	0.22453302
58	0xbce9fd56	-0.028563183
59	0x3c96bb4c	0.018399857
60	0x3e4cc2fd	0.19996257
61	0x3e38017f	0.1796932
62	0x3d573794	0.052543238
63	0xbe31940e	-0.17341635

fc2.weight f4 [32, 64]
0	0xbd89137b	-0.06693169
1	0xbde215f0	-0.110393405
2	0x3d59988d	0.053124
3	0x3dc1c247	0.094608836
4	0x3d815649	0.06315286
5	0x3d32b7b8	0.04363224
6	0xbd1ab996	-0.037774645
7	0xbda75425	-0.08170346
8	0xbd2a49f2	-0.041574426
9	0x3d99ef5b	0.075163566
10	0x3c77ebbf	0.01513189
11	0x3d87e1f6	0.066348955
12	0xbe0c639a	-0.1370987
13	0xbe033080	-0.1281147
14	0xbdeabb20	-0.114614725
15	0x3dc61cec	0.09673485
16	0xbdc179b1	-0.09447039
17	0x3d9b8e20	0.075954676
18	0xbdc6dba5	-0.097098626
19	0x3d5df776	0.054191075
20	0x3d1feea5	0.03904595
21	0x3bbf010b	0.0058289818
22	0xbe0b4a10	-0.13602471
23	0xbd9ee6b7	-0.07758849
24	0x3c95769d	0.018245036
25	0xbde4ab21	-0.11165453
26	0xbda9f623	-0.082989
27	0x3b51a5ae	0.0031989622
28	0xbd339d3a	-0.043851115
29	0x3d21a2b0	0.03946179
30	0x3bed3cf6	0.007239933
31	0xbd361b68	-0.04445973
32	0xbe098a73	-0.1343172
33	0x3db34eda	0.08755274
34	0xbdc8c8e9	-0.098039456
35	0xbdc5675a	-0.09638853
36	0xbc338e4e	-0.010959221
37	0x3c9c3d16	0.019072097
38	0x3d875a1d	0.066089846
39	0xbe0a2f89	-0.13494696
40	0x3db677ad	0.08909545
41	0xbe038461	-0.12843467
42	0xbe0d7d7b	-0.13817398
43	0x3cdfe980	0.027333021
44	0xbd17c7ea	-0.037055887
45	0xbdbb7380	-0.09152889
46	0x3bf76943	0.00755039
47	0xbdb2ccad	-0.08730445
48	0x3bad2e5f	0.005285069
49	0xbda23406	-0.07920079
50	0xbcd130cb	-0.025535962
51	0x3da518c6	0.08061366
52	0x3d2e7655	0.04259332
53	0xbd0348f6	-0.032052003
54	0xbd533087	-0.05155995
55	0xbccdef38	-0.025138482
56	0xbdbc506a	-0.09195025
57	0xbe09727e	-0.13422582
58	0x3b2bcd1d	0.0026214786
59	0xbd86f8c6	-0.065904185
60	0x3b445901	0.0029960277
61	0xbd057de7	-0.032590773
62	0x3cf0d3e1	0.029397907
63	0xbe053ab3	-0.13010673
64	0x3e46a257	0.19397865
65	0xbd477218	-0.048692793
66	0x3d9f23c7	0.07770496
67	0x3d6a91e3	0.057268035
68	0x3ca57f53	0.020202314
69	0xbddc074e	-0.10743581
70	0xbe5c2e1f	-0.21501969
71	0x3e0f6b28	0.1400572
72	0xbda5e600	-0.0810051
73	0xbd0e91b4	-0.034806922
74	0x3e505b8d	0.20347424
75	0x3e347f6b	0.17626731
76	0xbe77652f	-0.24159692
77	0x3d50a7ed	0.050941397
78	0xbafac31e	-0.0019131636
79	0xbe61915b	-0.22028105
80	0xbe099ae3	-0.13437991
81	0x3e5cd7d1	0.21566702
82	0xbc80fa18	-0.015744254
83	0x3d1e922a	0.03871361
84	0xbcc2771d	-0.023738438
85	0x3e12b55c	0.14326996
86	0x3e7a7d6a	0.24461904
87	0xbd20df86	-0.03927567
88	0xbeab6440	-0.33474922
89	0x3c9c74ff	0.019098757
90	0x3d37eafd	0.044901837
91	0x3e76990c	0.2408182
92	0xbd40a929	-0.047036324
93	0x3da163e2	0.07880379
94	0x3bd33cc1	0.0064464514
95	0xbe9b8a55	-0.30378976
96	0x3d777e6a	0.060423292
97	0x3d73d776	0.05953165
98	0xbda330e6	-0.07968311
99	0xbe32bdc2	-0.174552
100	0x3d8d42f3	0.06897535
101	0xbd8418d9	-0.06450052
102	0xbdaf3e65	-0.08556823
103	0x3e52d893	0.20590429
104	0x3e5a2344	0.21302515
105	0x3d6d68b9	0.0579612
106	0x3dffe895	0.124955334
107	0x3cdd111b	0.026985696
108	0x3d3c8e55	0.046034176
109	0x3d16e8dd	0.03684317
110	0xbe391110	-0.18072915
111	0x3d00c55d	0.03143822
112	0x3e24984c	0.16073722
113	0x3e09b6e4	0.13448673
114	0x3e6e155a	0.23250332
115	0xbca15a28	-0.01969631
116	0x3d9516d7	0.07279747
117	0x3d97450e	0.07386218
118	0x3e41f5cf	0.18941425
119	0xbc7fa3f5	-0.015603055
120	0x3e0bae7a	0.13640776
121	0xbe0d4973	-0.1379755
122	0xbb982ca3	-0.004643993
123	0xbcbcba01	-0.023037912
124	0x3cde5812	0.027141605
125	0xbc7fa11d	-0.015602377
126	0x3ca20370	0.01977703
127	0xbdc14b6f	-0.09438216
128	0xbcba321b	-0.02272897
129	0xbd203beb	-0.039119642
130	0x3d1d0681	0.03833628
131	0x3da5223d	0.08063171
132	0xbd77ff35	-0.06054612
133	0xbe26bb51	-0.16282393
134	0x3e25030a	0.1611444
135	0xbd294039	-0.041321013
136	0x3e52f2a3	0.20600371
137	0x3a5bf967	0.0008391351
138	0x38d85520	0.000103155384
139	0x3df84a9d	0.12123606
140	0xbd1b7941	-0.037957434
141	0x3e8949ea	0.26814204
142	0xbdb3e340	-0.08783579
143	0x3e9335d6	0.2875201
144	0x3c3a28f4	0.011362303
145	0x3e3171c3	0.17328553
146	0xbdb9ed92	-0.09078516
147	0xbe8958ed	-0.26825657
148	0xbe4bb2b6	-0.19892392
149	0x3d302321	0.04300225
150	0xbe3a305a	-0.18182507
151	0x3e21292c	0.15738362
152	0x3ef0618b	0.4694942
153	0xbe847774	-0.25872386
154	0xbe6e520f	-0.2327349
155	0x3d1be844	0.038063303
156	0xbc8cd096	-0.017189305
157	0xbe45388d	-0.19259854
158	0x3c79957a	0.015233392
159	0x3ddf12f5	0.10892288
160	0x3e794c1b	0.24345438
161	0x3e0881a5	0.13330705
162	0xbde41ea5	-0.111386575
163	0x3d8c178c	0.06840429
164	0x3dfd8a9b	0.123799525
165	0x3e8d0be6	0.2754814
166	0xbde57f41	-0.112059124
167	0x3d8f9d3b	0.07012411
168	0x3de78d7a	0.113062814
169	0x3e389c64	0.18028408
170	0x3e40d93e	0.18832871
171	0x3cb135f1	0.021632167
172	0x3ce10bfb	0.027471533
173	0xbd948671	-0.07252205
174	0xbe050647	-0.12990676
175	0xbe4c0e20	-0.19927263
176	0x3d5cef45	0.053939123
177	0xbdad49ce	-0.08461343
178	0x3ec3ff01	0.3828049
179	0xbe574c1b	-0.21025126
180	0x3deb5671	0.11491097
181	0xbd8d7246	-0.069065616
182	0xbd06138b	-0.03273348
183	0x3dfa8794	0.12232891
184	0xbe59fa60	-0.21286917
185	0xbd055e14	-0.032560423
186	0x3c6cbeab	0.014449756
187	0xbd61757a	-0.055043675
188	0xbd59d87c	-0.05318497
189	0x3dc74f7a	0.09731956
190	0x3daad73f	0.08341836
191	0xbe1cd51b	-0.15315668
192	0xbd472be3	-0.048625838
193	0x3e288ae7	0.16459237
194	0xbbe03842	-0.006842644
195	0x3e79d1eb	0.24396484
196	0x3d39c587	0.045354392
197	0xbbf2d0aa	-0.0074101286
198	0x3e71fe81	0.23632242
199	0x3b223938	0.0024753343
200	0x3c9d4896	0.01919965
201	0x3ed50a02	0.41609198
202	0x3daac407	0.083381705
203	0x3e358c3c	0.17729276
204	0xbe3d486d	-0.1848466
205	0x3e140c1c	0.14457744
206	0xbd81f59c	-0.063456744
207	0x3e416046	0.18884382
208	0x3b90e348	0.0044216253
209	0xbc6b7ddf	-0.014373272
210	0x3d0621ca	0.032747068
211	0xbe288aac	-0.16459149
212	0xbde1d900	-0.110277176
213	0x3d381b3f	0.04494786
214	0xbcfb2eb4	-0.030661918
215	0x3d3cffd1	0.046142403
216	0x3e3a89fb	0.18216698
217	0xbe4a94e8	-0.19783366
218	0xbe7f43b0	-0.24928164
219	0xbe003149	-0.12518801
220	0xbd224276	-0.039614163
221	0x3c4f4e12	0.012652891
222	0x3e25f5cd	0.16207047
223	0xbd2619f3	-0.04055209
224	0xbe0749ff	-0.13211821
225	0x3e34288b	0.17593591
226	0x3e81032c	0.25197732
227	0x3eaaca2a	0.33357364
228	0x3be16a3a	0.0068791183
229	0xbd8f7be8	-0.07006055
230	0x3def7073	0.1169137
231	0xbee3adea	-0.44468623
232	0x3d6700f5	0.056397397
233	0x3e1f3d92	0.15550831
234	0x3e290219	0.16504706
235	0x3ebe7b12	0.3720327
236	0x3e43031d	0.19044156
237	0x3e57d786	0.2107831
238	0xbe2e501c	-0.17022747
239	0xbd81aa00	-0.06331253
240	0x3e352a1f	0.17691849
241	0x3dbe6a2b	0.09297594
242	0xbdadbb81	-0.08483029
243	0xbd3326ae	-0.04373806
244	0x3d5ee238	0.054414958
245	0x3db91053	0.09036317
246	0x3e17a0d8	0.14807451
247	0x3e1473ff	0.14497374
248	0x3db10ee8	0.08645421
249	0xbabcd4cc	-0.001440668
250	0xbe5cce6b	-0.21563117
251	0x3da69a07	0.08134847
252	0xbe1f86c1	-0.15578748
253	0xbe21d86c	-0.15805215
254	0x3de330e2	0.11093308
255	0xbe20aef9	-0.15691747

fc2.bias f4 [32]
0	0xbce80669	-0.02832337
1	0x3dd67ded	0.10473237
2	0x3d6d65e7	0.05795851
3	0x3e306d7d	0.17229266
4	0xbccdf883	-0.025142914
5	0x3dfa5609	0.12223441
6	0xbde282ef	-0.1106013
7	0xbc95acae	-0.018270817
8	0xbe2f13dc	-0.1709742
9	0x3c815f5d	0.015792543
10	0x3da1b9df	0.0789678
11	0xbddc33b0	-0.10752046
12	0x3d37bd8c	0.0448585
13	0x3db0cff4	0.08633414
14	0xbc8c8fee	-0.017158475
15	0x3c97151b	0.018442681
16	0x3de23df3	0.11046972
17	0xbd3ef72b	-0.046622436
18	0xbda94b17	-0.082662754
19	0xbd092249	-0.033479962
20	0xbd43cd4c	-0.04780321
21	0x3e7b7d6a	0.2455956
22	0x3d971b34	0.073782355
23	0xbdd5c8d4	-0.104386955
24	0xbe03540e	-0.12825033
25	0x3d258cb5	0.04041739
26	0xbd3563a4	-0.044284478
27	0xbd08ee50	-0.033430398
28	0x3dd557da	0.10417147
29	0xbd9eeac3	-0.07759621
30	0x3d642760	0.055701613
31	0x3c8da6f8	0.017291531

policy_head.weight f4 [9, 32]
0	0xbe1c2d46	-0.15251645
1	0x3e5bcef9	0.21465673
2	0xbd7e5aa4	-0.06209816
3	0xbdd1c126	-0.10241918
4	0xbeafb46b	-0.34317335
5	0xbe8c6b42	-0.2742558
6	0x3d2a00d3	0.041504692
7	0xbc6c5044	-0.014423434
8	0xbdffd97b	-0.12492653
9	0xbeab9994	-0.33515608
10	0xbe0664a3	-0.13124327
11	0xbdab78e4	-0.083726674
12	0x3e5ac215	0.21363099
13	0x3de9fd6c	0.114252895
14	0xbea0b0ba	-0.31384832
15	0x3e3ae74d	0.18252297
16	0x3e747f40	0.23876667
17	0x3e3c1442	0.18367103
18	0x3dc66557	0.09687298
19	0x3e79d719	0.2439846
20	0x3c41cda7	0.0118288165
21	0xbe30e8b1	-0.17276265
22	0x3e045a9c	0.1292519
23	0xbee20d6e	-0.4415087
24	0x3e2d4146	0.16919431
25	0xbcd01f7d	-0.02540564
26	0xbe7945c3	-0.24343018
27	0x3e886132	0.26636654
28	0xbe0f9b52	-0.14024094
29	0x3e77d38e	0.24201795
30	0x3ae16eea	0.0017199193
31	0xbc9cde04	-0.019148834
32	0xbdb8bc78	-0.090203226
33	0xbe8412b0	-0.25795507
34	0x3dde6997	0.108599834
35	0x3eeaa5dc	0.45829666
36	0xbeca06a5	-0.39458194
37	0x3e7dfc98	0.24803388
38	0xbe3a30ff	-0.18182753
39	0xbdd543da	-0.10413332
40	0xbe71417b	-0.23560135
41	0x3d7315e9	0.059347067
42	0x3eb2bb1e	0.34908384
43	0x3daa4544	0.083139926
44	0xbe70353c	-0.23457807
45	0xbea356e4	-0.3190223
46	0xbe7907f8	-0.24319446
47	0xbe228594	-0.15871269
48	0x3d533084	0.05155994
49	0x3e3b7fee	0.1831052
50	0x3e2a26c4	0.1661635
51	0x3de0c966	0.10975914
52	0x3d47453d	0.048650015
53	0xbd15d338	-0.036578387
54	0xbe2e7b9c	-0.1703934
55	0xbe3cd846	-0.18441877
56	0xbe9c838d	-0.30569115
57	0xbe9a8b89	-0.30184582
58	0xbe0c0762	-0.13674691
59	0xbe74e55f	-0.23915623
60	0x3cc1608f	0.023605613
61	0xbed71685	-0.4200937
62	0xbe059b36	-0.1304749
63	0x3eccb015	0.3997809
64	0x3e1c31de	0.15253398
65	0x3e2238c7	0.15841971
66	0xbefbe3c4	-0.4919721
67	0xbe93ccdc	-0.28867233
68	0xbe1f0dac	-0.15532559
69	0x3daf438b	0.08557805
70	0xbdd244c6	-0.10267024
71	0x3e2daa1c	0.16959423
72	0xbee9e570	-0.4568286
73	0xbe0ff25f	-0.14057301
74	0xbe399402	-0.18122867
75	0xbecb2a19	-0.39680555
76	0xbd1badf1	-0.03800768
77	0x3eb1202a	0.34594852
78	0x3eebb6df	0.46037957
79	0xbe2a65da	-0.16640416
80	0x3e3d783b	0.18502896
81	0xbe83d6e2	-0.2574988
82	0x3de8c9ee	0.1136664
83	0x3e600759	0.21877803
84	0x3e4a2041	0.19738866
85	0x3d67fdee	0.05663865
86	0x3bad0973	0.0052806675
87	0x3c956b99	0.018239783
88	0xbe66ce54	-0.22539645
89	0xbda7ce93	-0.08193698
90	0x3e85f89a	0.2616623
91	0xbdcaf1c2	-0.09909393
92	0x3c0e1cf6	0.008673897
93	0xbe183b9e	-0.14866492
94	0xbd70d527	-0.058797028
95	0xbd18c3ae	-0.03729599
96	0x3d94544d	0.072426416
97	0x3e11db88	0.14243901
98	0xbe2b90ae	-0.1675441
99	0xbe15adbd	-0.14617057
100	0xbec17d6f	-0.3779101
101	0xbe4fd8fa	-0.20297614
102	0xbd6a52ed	-0.05720799
103	0x3e677e8c	0.22606868
104	0x3e9a9f2b	0.3019956
105	0xbdb86ce2	-0.09005143
106	0xbe90b84e	-0.28265613
107	0x3e78f671	0.2431276
108	0xbdcc3c0a	-0.09972389
109	0x3e27a83a	0.16372767
110	0x3e8adf33	0.27123412
111	0xbea0b954	-0.31391394
112	0xbeccd086	-0.4000284
113	0x3bf2ecc0	0.0074134767
114	0xbe10cff1	-0.14141823
115	0xbe194b52	-0.14970139
116	0xbef2796a	-0.47358257
117	0x3d6fd2bd	0.058550585
118	0xbeb587c6	-0.3545515
119	0x3e906754	0.28203833
120	0x3edf1ce6	0.43576735
121	0x3e83f583	0.25773248
122	0xbef3d2e9	-0.4762185
123	0xbe97630e	-0.2956776
124	0x3c9fef66	0.019523334
125	0xbdd605f2	-0.10450353
126	0xbeb0b9c0	-0.34516716
127	0x3eaf642f	0.34256122
128	0xbd9093cb	-0.07059439
129	0x3d8aea08	0.06782919
130	0xbe4ef5ca	-0.20210949
131	0x3d2a45e7	0.04157057
132	0xbe401581	-0.18758203
133	0xbe253350	-0.16132855
134	0xbdeb23c9	-0.11481435
135	0x3dbd65c7	0.09247928
136	0x3e469b61	0.1939521
137	0x3e37e6e3	0.1795917
138	0x3e807ae7	0.25093767
139	0xbd8dea4f	-0.069294564
140	0xbd94b56e	-0.072611675
141	0x3d95395c	0.07286331
142	0x3cd213a8	0.025644138
143	0x3e5b24c2	0.2140074
144	0x3e1fdb7e	0.15611073
145	0xbe39e940	-0.18155384
146	0xbd1c87f0	-0.038215578
147	0xbecaf238	-0.39637923
148	0xbe16ce69	-0.14727177
149	0x3dc59478	0.09647459
150	0x3e75b5ef	0.23995183
151	0x3d846ca9	0.06466038
152	0xbe774daa	-0.2415072
153	0x3c89bd25	0.016813824
154	0xbe27f98e	-0.16403791
155	0x3e7c2d70	0.24626708
156	0x3db4d61b	0.088299
157	0xbdbcfe11	-0.09228147
158	0x3e7e445c	0.24830765
159	0xbdfccce8	-0.1234377
160	0xbddfcab3	-0.10927334
161	0x3e577e15	0.2104419
162	0x3e5bde72	0.21471575
163	0x3e83cf32	0.25744015
164	0x3d9300b5	0.07177869
165	0xbe3ebb0b	-0.18626039
166	0x3b7f55a0	0.0038960949
167	0xbd922874	-0.07136622
168	0x3e7ba001	0.24572755
169	0xbec21bd6	-0.37911862
170	0xbe80085c	-0.25006378
171	0x3e1a19d6	0.15048918
172	0x3e0f9b82	0.14024165
173	0xbe951022	-0.2911387
174	0xbe29b86b	-0.16574256
175	0x3cbe1181	0.023201706
176	0xbee0854e	-0.43851703
177	0xbe24f8d5	-0.16110547
178	0xbcf6c7f9	-0.030124651
179	0xbe8c146a	-0.27359325
180	0x3e219a80	0.15781593
181	0xbec0176c	-0.3751787
182	0xbe4af0d3	-0.1981843
183	0x3ee4f057	0.44714615
184	0xbe9d9985	-0.3078119
185	0xbef220aa	-0.47290546
186	0x3e5840c8	0.21118462
187	0x3e30b879	0.1725787
188	0xbcc089da	-0.023503233
189	0x3e8e6e15	0.2781836
190	0xbeb61d66	-0.35569304
191	0xbe298028	-0.16552794
192	0xbe23e255	-0.16004308
193	0xbe6edb88	-0.23325932
194	0x3ea69248	0.3253348
195	0xbe7b7de4	-0.24559742
196	0x3ebe94b2	0.3722282
197	0xbecd0657	-0.400439
198	0xbe325fb4	-0.1741932
199	0xbea56fd8	-0.32311893
200	0x3e96995b	0.29413876
201	0x3e671e17	0.22570072
202	0xbe98d52d	-0.2985014
203	0xbe6d41c0	-0.23169613
204	0xbe89ffdb	-0.26953015
205	0xbe59a6bc	-0.2125501
206	0x3e875061	0.26428512
207	0x3d3cb707	0.046072986
208	0x3d561dcb	0.052274507
209	0x3d92b4f2	0.07163419
210	0xbcc6aba0	-0.024251759
211	0x3e1cccb5	0.15312465
212	0x3e611fd4	0.21984798
213	0xbe229a8e	-0.1587927
214	0xbe401b4d	-0.18760414
215	0x3e1a115d	0.15045686
216	0xbcf886e7	-0.030337764
217	0xbeb4c19a	-0.35303956
218	0xbe1fe8ed	-0.15616198
219	0xbe96a04e	-0.29419178
220	0xbcdaf0c2	-0.02672613
221	0x3db5ff86	0.08886628
222	0x3e8fb0d5	0.280646
223	0x3e1fd24f	0.1560757
224	0x3ddfb16f	0.10922515
225	0xbcd3337b	-0.025781384
226	0xbe5d3158	-0.21600854
227	0xbd6a9359	-0.057269428
228	0x3e166f64	0.1469093
229	0x3e543156	0.20721945
230	0xbdd51520	-0.1040442
231	0x3e64838a	0.22315803
232	0xbeca2e14	-0.3948828
233	0xbe8162b7	-0.25270626
234	0xbe2a340a	-0.16621414
235	0xbd506ce2	-0.05088509
236	0xbe811039	-0.2520769
237	0xbd8a2423	-0.06745174
238	0x3dc817a3	0.09770133
239	0xbe97d8e4	-0.29657662
240	0xbe6f1604	-0.23348242
241	0x3e73e1d3	0.23816614
242	0x3d5dea26	0.05417838
243	0xbe3b5e07	-0.18297587
244	0xbde51ed4	-0.111875206
245	0xbe0070d7	-0.12543045
246	0x3ee3f651	0.44523862
247	0xbe22fbea	-0.1591641
248	0x3ded8951	0.11598457
249	0xbe4d273f	-0.20034502
250	0xbd7dfb52	-0.062007256
251	0x3cf69ed5	0.030105034
252	0xbe191bb1	-0.1495197
253	0xbe29c497	-0.165789
254	0xbd724198	-0.059144586
255	0xbe90db54	-0.28292334

policy_head.bias f4 [9]
0	0xbdd8ab7b	-0.10579582
1	0x3d228f1e	0.03968727
2	0x3e15e8b8	0.14639556
3	0xbc92b5e5	-0.017909
4	0x3b148ddd	0.0022667565
5	0xbe0ae9d1	-0.13565756
6	0x3d9367a4	0.07197502
7	0xbdd4632e	-0.103704795
8	0x3df98cca	0.121850565

value_head.0.weight f4 [16, 32]
0	0xbd406cfa	-0.04697893
1	0xbcdd73d2	-0.027032766
2	0xbe5f2fb1	-0.21795537
3	0xbd0a45f2	-0.03375811
4	0x3e032bc5	0.12809666
5	0xbdfdd60d	-0.123943426
6	0x3dcae6ee	0.099073276
7	0xbe57ea59	-0.2108549
8	0x3e1e944b	0.15486257
9	0xbe1005cf	-0.14064716
10	0xbe358fe3	-0.1773067
11	0x3e51e947	0.20499144
12	0xbdcee72c	-0.10102686
13	0xbd1a762e	-0.03771036
14	0x3d4c91f7	0.04994389
15	0xbdd70603	-0.104991935
16	0x3d4b60f7	0.04965302
17	0xbe3460ec	-0.17615098
18	0x3e095b97	0.13413845
19	0xbd80ae2c	-0.06283221
20	0xbe68de93	-0.22741155
21	0xbd84a91e	-0.06477569
22	0xbec1bdf2	-0.3784023
23	0x3e335457	0.17512642
24	0xbddb04c8	-0.10694271
25	0xbd99489b	-0.074845515
26	0x3d8f9abb	0.07011934
27	0xbe95edea	-0.29283077
28	0xbd4a0b7c	-0.04932736
29	0x3c290c8b	0.010317932
30	0xbd0c8b9f	-0.03431284
31	0x3d55819b	0.052125555
32	0x3e38b3a5	0.18037279
33	0x3de04e8e	0.10952483
34	0x3e3ad604	0.18245703
35	0xbc7862c6	-0.015160268
36	0xbdcae053	-0.09906068
37	0x3d7be54b	0.061497968
38	0xbca601ac	-0.02026447
39	0x3dea46cf	0.11439287
40	0xbe165db3	-0.14684181
41	0xbdae7bba	-0.08519693
42	0xbdd49ea5	-0.103818215
43	0x3d1814e7	0.03712931
44	0x3a8822a1	0.0010386297
45	0x3e456e49	0.19280352
46	0xbd1210ba	-0.035660483
47	0x3dda585b	0.10661384
48	0xbe32f1b7	-0.1747502
49	0x3e74fbfd	0.23924251
50	0x3df02b3a	0.11726995
51	0xbd770e42	-0.06031633
52	0x3e004c63	0.12529139
53	0x3d4aeba2	0.049541123
54	0x3cbbfaf4	0.022946812
55	0xbe39a73c	-0.18130201
56	0xbd3a7a9c	-0.045527086
57	0xbe1ecf1a	-0.1550869
58	0xbd82cde8	-0.0638693
59	0x3de2b6af	0.110700004
60	0x3e8f5231	0.27992395
61	0x3c8d3b27	0.01724012
62	0x3d5dfc00	0.054195404
63	0x3e46a6ff	0.19399641
64	0xbdd4b3b4	-0.10385838
65	0xbe0a90b7	-0.13531767
66	0xbe06a375	-0.13148291
67	0xbdced5ca	-0.10099371
68	0xbcbf726c	-0.02336999
69	0x3e21dd38	0.15807045
70	0xbd794cf1	-0.060864393
71	0xbde1a1e7	-0.110172085
72	0xbda23b74	-0.07921496
73	0xbe129af6	-0.14316925
74	0xbdcc21a4	-0.09967354
75	0xbdb9ddb4	-0.0907549
76	0xbe16373b	-0.14669506
77	0xbdcfb071	-0.101410754
78	0x3bbf7f19	0.0058440086
79	0x3d63033e	0.055423014
80	0xbdb18a8e	-0.08669005
81	0xbd87a491	-0.066231854
82	0xbd9ed2f7	-0.07755082
83	0xbe1c7160	-0.15277624
84	0xbd23bd3d	-0.039975394
85	0xbe0e229c	-0.1388039
86	0xbe4913c6	-0.19636449
87	0x3d7bd431	0.06148166
88	0x3d0528c1	0.03250957
89	0xbd84ed9b	-0.06490632
90	0x3d6b7609	0.057485614
91	0x3bf52400	0.007481098
92	0xbe065ecd	-0.13122101
93	0x3e176d0a	0.14787689
94	0xbdc7983f	-0.097458355
95	0xbc412e34	-0.011790801
96	0xbde45bdd	-0.11150334
97	0xbe43a749	-0.19106783
98	0x3ca451ba	0.020058502
99	0x3c042942	0.008066477
100	0x3d812292	0.06305422
101	0xbd76d0fc	-0.060257897
102	0x3e052047	0.13000594
103	0x3d220878	0.039558858
104	0xbd1c128f	-0.038103636
105	0xbdd0b1b2	-0.10190143
106	0xbe13f177	-0.1444758
107	0xbe453e9e	-0.19262168
108	0xbcb90fd8	-0.022590563
109	0xbe572a2a	-0.21012178
110	0xbc1602bb	-0.009155924
111	0x3da23d6f	0.07921874
112	0xbe586eea	-0.2113606
113	0x3d114f5c	0.035476074
114	0x3d5e7d14	0.054318503
115	0xbd3a76a6	-0.04552331
116	0xbe0247ed	-0.1272275
117	0xbe0b43ba	-0.13600054
118	0xbcfeff84	-0.031127699
119	0xbd978c72	-0.07399835
120	0xbda47ee2	-0.080320135
121	0xbda943b5	-0.08264867
122	0xbe7c1089	-0.24615683
123	0xbe042ca7	-0.12907659
124	0x3daa8be0	0.0832746
125	0x3d436a1e	0.047708623
126	0xbd218b3f	-0.039439436
127	0xbe4fce5d	-0.20293565
128	0x3dad2f3f	0.08456277
129	0x3e2b6842	0.1673899
130	0xbe751be0	-0.23936415
131	0xbdd1088b	-0.102067076
132	0x3d48704c	0.04893522
133	0xbe4e42ac	-0.20142621
134	0xbcb1d03d	-0.021705741
135	0x3cdcaa01	0.026936533
136	0x3dac1144	0.08401731
137	0x3d7eac43	0.062176
138	0x3bf77f72	0.0075530345
139	0x3d7c81bb	0.061647158
140	0x3ddc9c2c	0.10771975
141	0x3d929978	0.07158178
142	0xbd934087	-0.07190042
143	0xbd154bfa	-0.03644941
144	0x3c34a195	0.011024852
145	0xbe30b6eb	-0.17257278
146	0x3e290fae	0.16509888
147	0xbdb39dbb	-0.08770319
148	0x3db2d7e6	0.087325856
149	0x3e3c10f2	0.18365839
150	0xbd6f339a	-0.05839882
151	0x3d07456d	0.033025194
152	0x3e06838f	0.13136123
153	0x3deed027	0.11660796
154	0x3d004b4e	0.031321816
155	0x3e1e37f3	0.1545103
156	0xbe119821	-0.14218189
157	0xbd2a69fe	-0.04160499
158	0x3e0dab7f	0.13834952
159	0x3db3d1bb	0.08780237
160	0x3d1cdaa5	0.038294453
161	0xbd81aa4e	-0.06331311
162	0xbd2fc01f	-0.04290783
163	0xbe1f3f73	-0.15551548
164	0x3e3abaa8	0.18235266
165	0xbd6eb632	-0.058279224
166	0x3c92ce81	0.017920734
167	0xbe159c66	-0.14610443
168	0xbe26d099	-0.16290511
169	0xbaf75fb9	-0.0018873132
170	0x3bd088ee	0.0063639795
171	0xbe86da15	-0.26338258
172	0x3cc60e97	0.024176879
173	0x3d064301	0.032778744
174	0x3a9db268	0.0012031319
175	0x3d7c30a5	0.06156983
176	0x3e2b242b	0.16713016
177	0xbdf40479	-0.119149156
178	0x3e091d3b	0.13390057
179	0xbe3a1e75	-0.18175681
180	0x3e42e9da	0.1903452
181	0x3d8e554d	0.069498636
182	0x3d2c1c55	0.042019207
183	0xbd8cdf8b	-0.06878575
184	0xbe89df4e	-0.2692818
185	0x3d3463a4	0.044040337
186	0x3e22cf67	0.1589943
187	0x3df5a26f	0.119938724
188	0xbdc0bbca	-0.09410818
189	0xbdbbf77c	-0.09178063
190	0xbda7ff81	-0.082030304
191	0xbc272d9a	-0.010203743
192	0x3c177ad3	0.009245592
193	0xbe19ebf9	-0.15031423
194	0x3e0aefb7	0.13568006
195	0x3d2be168	0.04196301
196	0xbd52350d	-0.051320124
197	0xbe0566da	-0.13027516
198	0xbd28d378	-0.041217297
199	0xbe1ad7a9	-0.1512133
200	0x3d484030	0.04888934
201	0xbdcc1294	-0.09964481
202	0x3d8d28fa	0.06892581
203	0x3e62bd59	0.22142543
204	0x3d13e7ce	0.036109738
205	0xbdaa5b96	-0.0831825
206	0x3e1d8ebf	0.15386485
207	0x3db94a62	0.090473905
208	0x3b7ed7a5	0.0038885858
209	0x3e716649	0.23574175
210	0xbddc9293	-0.10770144
211	0x3e24dc90	0.16099763
212	0xbe04f10f	-0.12982582
213	0xbd903a5f	-0.070423834
214	0xbd7c6c49	-0.061626706
215	0x3eaa0d65	0.33213344
216	0x3c2f7958	0.010710083
217	0xbe11c96c	-0.14236993
218	0xbd9727a2	-0.07380606
219	0x3d9167b2	0.070998564
220	0xbe7d98b2	-0.2476528
221	0x3e660547	0.2246295
222	0xbc99f03b	-0.018791309
223	0x3cebde2a	0.02879246
224	0x3d62e6ed	0.05539601
225	0xbdd830e1	-0.10556198
226	0xbe839b01	-0.25704196
227	0x3dc99354	0.09842554
228	0x3d5e851f	0.054326173
229	0x3db7f119	0.089815326
230	0xbcd2b06d	-0.025718892
231	0x3bcb6e57	0.006208222
232	0x3dfdb236	0.12387507
233	0x3d30cea8	0.043165833
234	0x3e032961	0.12808754
235	0x3e0bdf3a	0.13659373
236	0xbc57954f	-0.013158157
237	0x3ddadea2	0.10686995
238	0x3e2962d5	0.16541608
239	0xbe05d796	-0.13070521
240	0x3d325c37	0.043544974
241	0xbdd30a4e	-0.103047
242	0xbd5df298	-0.054186434
243	0xbd472c33	-0.048626136
244	0xbdd1cb7c	-0.1024389
245	0x3d8dd6b9	0.06925721
246	0x3e10e957	0.14151512
247	0x3ea7f897	0.32806846
248	0xbdae21ce	-0.085025415
249	0x3de3fdb3	0.11132374
250	0xbddcb36c	-0.107764095
251	0x3e45e32e	0.19324943
252	0xbe8ba5c3	-0.27274904
253	0xbd38266f	-0.044958528
254	0x3d95ddf7	0.07317727
255	0x3d8c22b2	0.06842555

value_head.0.bias f4 [16]
0	0xbded67cb	-0.115920626
1	0x3e1ff119	0.15619315
2	0xbd12c592	-0.03583295
3	0xbdd3f132	-0.10348739
4	0x3d1680e5	0.036744017
5	0x3ac9b236	0.0015388194
6	0xbe3907e8	-0.18069422
7	0x3cadae2d	0.021201218
8	0x3dffd5a5	0.12491921
9	0xbe43430d	-0.19068547
10	0xbd83744b	-0.064186655
11	0x3e5b78c8	0.21432793
12	0xbdb87f55	-0.09008662
13	0xbe0feae8	-0.14054453
14	0xbd80f514	-0.06296745
15	0xbe1bf204	-0.1522904

value_head.2.weight f4 [1, 16]
0	0x3ea913ad	0.33022824
1	0xbe50390c	-0.20334262
2	0xbe219f68	-0.15783465
3	0x3b37b67b	0.002803235
4	0x3e6b77e7	0.22994958
5	0x3e09a8a3	0.13443236
6	0x3e160f72	0.1465433
7	0x3e76e2d4	0.24109966
8	0xbdd9b450	-0.10630095
9	0x3d78b06c	0.060715124
10	0xbb16bb6e	-0.00229999
11	0xbe89b85b	-0.26898465
12	0xbe43cd0b	-0.19121186
13	0xbe2f4163	-0.17114787
14	0xbe2076b4	-0.15670282
15	0x3e57cfda	0.21075383
