model2_20250703_215156_best.pth (torch, 20944 bytes, 9 tensors)

fc1.weight f4 [64, 19]
00000000: 5430 623e ccb5 88be 05aa 1c3e 99f5 f73d
00000010: afae b3bc f20f 28bd 20a9 ec3c 9b89 f0bd
00000020: 6ecb 39be 4c29 db3c bc58 473e 2273 1f3e
00000030: 045d a8bd 42ec 83be 339c dcbd 8efd 1bbe
00000040: 43aa 8ebd d7b1 073e 17d6 d83c cfc0 31be
00000050: 99dd 90be 0c08 953e c259 4d3e 78ec 843a
00000060: 3e62 3ebe 3ecc 68be 494a d83d eea2 b7bb
00000070: 1007 6d3e e12d ab3d 8101 f1bd a0a8 da3d
00000080: 0655 06bd 31c1 913e 18e9 ce3d 3c6a 4b3e
00000090: db53 fdbd 8eec d3bc 5701 babd ddab 67bc
000000a0: fa10 3e3e 2d91 1ebe 8f75 963d 9619 923c
000000b0: b039 01be e62e 83bd cc90 bb3d 644f 4fbd
000000c0: 97b4 5e3e 685b 3e3e 1963 433d b93b e63d
000000d0: 027f 6ebe 5950 cd3d be97 c23d 040f 7aba
000000e0: 17d1 d6bc 50a4 d7bd 7311 133e 849b 3abe
000000f0: f7b2 4b3c 6e4c 57bb a87d 30bd d27d 61be
00000100: 7244 18be bc36 893d fc0f 69be bcff 873e
00000110: bcf0 3bbd 2997 943e 5274 97be 388d c53d
00000120: 911b 9cbb ef65 3f3e 4e2a 58be 2a8c 85bd
00000130: 321b ce3d 89d7 1dbc 027c 243b da01 50be
00000140: af73 723c ded1 86be ea38 c93c 7b17 f2bd
00000150: e340 9c3d c071 263e e01c f13d 593e 8bbd
00000160: 442d 35be ae44 bdbd e035 023d bcbc d23d
00000170: c282 1ebe e132 433e 9108 a03d a0b3 07bd
00000180: e8d4 9b3d e9b8 77bc fe1b b7bc 916b 0cbe
00000190: 9d43 8abe 9726 fbbd 32c7 a0bc 8e3d ba3d
000001a0: 08d2 373e 1d30 65bd a0ec 78bd eebc 9fbd
000001b0: bdd2 2fbd 6d94 f03d f87b 0f3e f418 893d
000001c0: cb18 623d de20 113d cee6 f5bd 478e e93d
000001d0: 9cf7 953d 5554 61be cf4c 50be d67d e53d
000001e0: 414a 9c3d 54ed f53d 3f91 4c3d 5d75 443e
000001f0: 5168 52be 58dc 07be 8db8 ac3c d225 203e
00000200: db9f 133d 562d 2fbe f8c3 423c 37d7 94bd
00000210: 44da ee3c 3afd 65be ae72 6e3e 2143 1f3e
00000220: a71f 9e3d 3c12 f6bc 055d 3f3e bd19 49be
00000230: f41e 193e 1020 f13d 1e18 433c b0a9 2f3d
00000240: cf99 ad3d 23c5 5c3e 080a 893d ceff 083d
00000250: bef1 82bd 0bd6 c63d 247a d93c 8015 113e
00000260: 7c2e 06be 71ea 9a3d 879e 37be 1fa2 34be
00000270: 99d6 77be 6659 033e 40cf 69be 3e43 bc3d
00000280: 3c1f 233e 5e2e 90bd 28ab 9dbd bedd 533d
00000290: 378a c3bd e628 533e 4902 063e f9cb 983e
000002a0: e3aa 72be 7207 10be ae5c a23d a6a7 043e
000002b0: 9f65 2bbe eb5d 0d3e b27e b33b 83d5 ee3d
000002c0: 4545 c03d ac78 373e 918d b1bc 8f55 c73c
000002d0: dfb5 523d aff2 6e3e 4d48 033e 1072 43bd
000002e0: 843f 383e 1bcd aa3d a6db bebd 87b9 583d
000002f0: 2ecb 9b3d 5650 8abe 6c2e 48bd 0d26 72bc
00000300: 0b87 b53d 1f54 163e 3701 433e 8ced 483e
00000310: 680b d43c 1207 aa3b 3c9d ebbd 1af8 eb3c
00000320: 54fb 6abd 2752 fd3d 3ae4 90be d01a ffbd
00000330: 3f88 c5bd c459 923c 39b4 173d 2d9f d1ba
00000340: 1bf7 41be 3827 26be 3334 44be f9e6 8dbd
00000350: fa92 3e3e 8882 7dbe 6433 513e 3f43 493d
00000360: ff1c 9cbd e4d5 08be 2306 403c dd71 fe3b
00000370: b972 23be c16d 203e 6e28 403e 7aa6 0fbb
00000380: 1f82 8b3e ff5f 5bbe 50f7 d0bd 0c3a d13d
00000390: 2296 94bd 912b 0abd 1f1a 8a3d 5325 efbd
000003a0: 95ef 64be bac9 103e 4d28 d03d cb54 473e
000003b0: 0856 36be a466 613e a9d6 2bbc e903 b73d
000003c0: 572a 61be 2742 213e 303f f4bd a53c 723e
000003d0: 8789 e9bd 4549 2cbe 50e8 1cbe 5581 b6bd
000003e0: 31fc 083e f752 9b3c 6f71 f7bd 9dec bb3d
000003f0: 84d0 84bd cda8 1bbd 22fc 6abe ba2c 273c
0.22088748 -0.267012 0.15299232 0.12107391 -0.021933882 -0.04103083 0.028889239 -0.11744996
-0.18144009 0.02675309 0.19467443 0.15571263 -0.08220866 -0.25766188 -0.1077198 -0.15233442
-0.069660686 0.13251434 0.026469273 -0.17358707 -0.28294066 0.29107702 0.20053771 0.0010141274
-0.18592164 -0.22734162 0.10561044 -0.0056041395 0.23147225 0.0835836 -0.11767865 0.10676694
-0.03279593 0.28467706 0.10103053 0.19864744 -0.1236951 -0.025869634 -0.09082287 -0.0141400965
0.18561164 -0.15485068 0.07346641 0.017834466 -0.12619662 -0.064054295 0.09158477 -0.050612822
0.21748577 0.18589556 0.04770193 0.1124186 -0.23290637 0.10025091 0.09501599 -0.00095389807
-0.026222749 -0.10529387 0.14362125 -0.18223387 0.012432805 -0.0032851952 -0.043088585 -0.22020653
-0.1486986 0.06699893 -0.22760004 0.26562297 -0.04588388 0.29021576 -0.29580933 0.09646076
-0.0047640284 0.18691228 -0.21109888 -0.06520875 0.10063781 -0.009633907 0.0025098328 -0.20313206
0.014798089 -0.2633199 0.024563272 -0.11820885 0.07629564 0.1625433 0.117730856 -0.06799001
-0.17693049 -0.09241615 0.03178966 0.102899045 -0.15479568 0.19062378 0.07814134 -0.033130288
0.07608968 -0.01511977 -0.022352215 -0.13712908 -0.2700471 -0.1226322 -0.019626234 0.09093772
0.17951214 -0.055954088 -0.06077254 -0.07799707 -0.042925585 0.1174706 0.14012134 0.066942126
0.055199426 0.035431735 -0.12006913 0.114040904 0.07322618 -0.22004826 -0.203418 0.11205642
0.0763135 0.12008157 0.049943205 0.19185396 -0.20547606 -0.13267648 0.021084094 0.15639427
0.036041122 -0.17107138 0.011887543 -0.072676115 0.029156812 -0.2245988 0.23285934 0.15552951
0.07720881 -0.030037992 0.18687828 -0.19638725 0.14953214 0.117736936 0.011907605 0.042886436
0.08476602 0.21559577 0.066913664 0.03344708 -0.06393765 0.09708794 0.026547499 0.14168358
-0.1310367 0.075642474 -0.17931567 -0.1763997 -0.24202956 0.12827072 -0.22832966 0.09192513
0.15929884 -0.07040094 -0.07698661 0.05172514 -0.09547847 0.2062107 0.13086809 0.2984312
-0.23698 -0.1406534 0.079278335 0.12954578 -0.16737984 0.13805358 0.0054777497 0.11661818
0.09388212 0.17917126 -0.02167395 0.02433279 0.051442977 0.23334764 0.1282055 -0.0477162
0.1799298 0.08339902 -0.09319238 0.052911308 0.07607113 -0.27014416 -0.048872396 -0.01477958
0.08863648 0.14680527 0.19043432 0.19621867 0.025884345 0.005188831 -0.115045995 0.028804827
-0.05736859 0.12369185 -0.28299123 -0.12456286 -0.096451275 0.01786507 0.037037108 -0.0015992873
-0.1894192 -0.16225898 -0.19160537 -0.0692882 0.18610755 -0.24756825 0.2042976 0.049136396
-0.07622718 -0.13362843 0.011720213 0.0077650384 -0.15961732 0.15666868 0.18765423 -0.0021919296
0.27247712 -0.21423338 -0.10203421 0.1021615 -0.07255198 -0.033732954 0.067432635 -0.11677041
-0.22357018 0.14139453 0.10163937 0.1946594 -0.17806256 0.2201181 -0.010488191 0.08936293
-0.21988808 0.15747891 -0.119261146 0.23655947 -0.114031844 -0.16824825 -0.15322995 -0.08911387
0.13377453 0.01896046 -0.120821826 0.0917599 -0.06485084 -0.038002778 -0.22947744 0.010203535

fc1.bias f4 [64]
00000000: 48ea df3b 7738 c0bd 431c d13a 5f27 9c3d
00000010: b941 36bd c72c e3bc c86b 56be 9674 5b3e
00000020: d9d4 58bc 4f2f 293e 70f1 273e cc06 033e
00000030: 312d c23c 20da 21bd 6b9c 9bbc f0bb 76bd
00000040: 0fcf b6bd 3bf5 f0bd 2183 e8bc 4fe5 72be
00000050: 7b5a 9fbd a646 39be d578 803e d156 853d
00000060: 11fe a33d e737 1e3e 79ca ff3d 65f7 303e
00000070: 6d14 153e 4696 123e c0dc 59be 9d76 13be
00000080: f0d2 27be 0725 b9bb 023e 0f3e ab01 193c
00000090: 8ab9 f33a cc61 7abd ce7c a53d 63b6 383e
000000a0: 50f7 35be 8be8 d93d 5b48 233e 460a cd3d
000000b0: 9c02 293e e67c 5ebe 28ce f8bc ea21 04be
000000c0: 97df 91bd cd3e cb3d dd64 54be 580e 26be
000000d0: bb43 16be 76e7 98bd 0842 04be bb6c 57bd
000000e0: 41c5 893d eefe 413e 560c 36bb 0801 a0bd
000000f0: 587d a03d 63a1 95bd 9653 a9bd bed0 853e
0.0068333484 -0.0938577 0.0015953857 0.07624697 -0.04449627 -0.027731312 -0.20939553 0.21431193
-0.013234341 0.16521953 0.16400695 0.12795562 0.02370319 -0.03951466 -0.018995484 -0.060237825
-0.08926212 -0.11765524 -0.02838284 -0.23720287 -0.0778093 -0.18093356 0.25092188 0.065106995
0.08007444 0.15451013 0.124897905 0.17281874 0.14558573 0.14315137 -0.21275616 -0.14400716
-0.1638906 -0.005650166 0.13988498 0.009338777 0.0018594724 -0.061128423 0.08080445 0.18038325
-0.17770123 0.10640057 0.1594557 0.10011725 0.16504902 -0.21727332 -0.03037174 -0.12903562
-0.071227245 0.09924088 -0.20741601 -0.16216409 -0.14674275 -0.07466023 -0.12915814 -0.052593928
0.06727076 0.18944904 -0.002777835 -0.07812697 0.078364074 -0.07306173 -0.08267896 0.2613582

fc2.weight f4 [32, 64]
00000000: 6aac acbc f939 a53d 6cd6 873d 2a6c 423e
00000010: 8333 d83d 5d55 91bd a651 62bc dc55 1f3a
00000020: a72f e3bd 7a43 a8bc 2ec4 ccbd 6bce afbd
00000030: 3f7b 3fbe 3ed6 b6bd 6021 b73c 0cef a63c
00000040: 2c84 b7bc e112 403e 48a6 643c f945 ed3c
00000050: ce00 23bc e24a 0dbc 3308 193e a884 6abb
00000060: 60b4 abbd 6968 343e b1d5 803c 9ee1 aabd
00000070: 7835 06be 930a 71bd df44 893c c708 d8bd
00000080: 18a8 6abd 1eec 463e 064f c13d bf3d 003d
00000090: d4b9 05be 49f2 1a3d a39a 85bd 3ada 103d
000000a0: ed31 05bd f50d 82bd 2e0a 02bd 911c 17bd
000000b0: d9a3 363d bed2 d83c 3522 d9bd 5b0f 31bb
000000c0: 95a1 ccbc 7e43 5abd 4038 273d 6fe8 d2bd
000000d0: 8e71 6c3d fe81 b13d 496f 0cbe 4a9a c93c
000000e0: 0abc a33d 2f92 94bd f21e d2bb 9747 b23d
000000f0: 51e7 af3c fc11 653d cefb dcbd 245e 06be
00000100: f50f e8bc 34ad 1f3e 3a98 393e d394 e7bc
00000110: 64c6 243e 1cb4 d13d 2a7f c63b 2de0 1e3d
00000120: 54f8 32bd 89a8 fe3d c527 83bc cb92 0dbe
00000130: 96b2 9abd e49c 113d c4ca 713c d373 04bd
00000140: 3222 79bc d50f 67bd b4d7 933d 4daf fc3b
00000150: bdb1 5bbd b14c 563c c8f0 37bd 84fa fbbc
00000160: c000 443d 3849 24bd 4e9c 613c b86d 043e
00000170: cd3a b73d 28ea d6bc 17ea 103e c209 a33b
00000180: cfc6 94bc b84e c8ba 10a6 0bbd 00ea 523c
00000190: 24ff 07bd fe55 a8bd 99c8 273d 33cc 8d3d
000001a0: 1c48 18be 7823 383b 9456 f03a b76c 37be
000001b0: 42fb cf3d 0927 dbbc 4f31 943d 3a3a 533d
000001c0: 56c6 72bd 63c7 82bd 6322 683d 25dc f23c
000001d0: 509d 4c3d 7045 e63d 4046 16be 1b57 14bd
000001e0: 3390 a83d ea4d ec3d 9f07 c5bc 3d88 f23c
000001f0: 81e7 293d 451e 623d a9d8 763d 6083 38be
00000200: 6027 003d 0816 0b3e ad30 a33d 1856 983c
00000210: a562 1c3e 9e3e 9dbd 2067 a6bd dba8 b6bd
00000220: 921b 0bbe f159 923d da1e 50bd bb5f 42be
00000230: 5581 a43b 8689 a43d 7c62 3539 2e2c afbd
00000240: fdbd 0ebd 6d64 74bd 4714 42bd 6d6d 12be
00000250: 35b8 95bc ae27 8abc 5488 8fbd e104 79bd
00000260: 4c49 083d 3432 133d abae fbbd c32f b33b
00000270: 58e1 9e3d 8347 b43d 188f aa3d fea3 a4bd
00000280: cb50 8bbd 0e95 c83d 07b8 8e3d de38 f8bb
00000290: 41a8 c1bd f1c6 1b3d ac55 933d d85f 28be
000002a0: 265e c7bd 84de 60be bf88 8fbd 895b 9cbd
000002b0: 288c 133e ef4f 073e dc56 3bbd 3288 6e3e
000002c0: fe98 1fbe c820 5b3e 7908 21bd 1c32 11be
000002d0: 2ebb 083e e7c8 e9bc eca7 a1bd 22ab d4bd
000002e0: 1fe2 01bd 2332 393d 57f7 8bba 2f9b 9fbb
000002f0: 878c 43bd 5fa4 3b3e b1c3 c6bc f408 b53c
00000300: 272f 913c cb5c 83bd e0de 663d 53d2 86bc
00000310: 0e44 653d 96eb 70bd 1483 5dbd 4982 67be
00000320: 1ec9 d2bd 2be4 aa3d 34c6 7d3d 18d7 e33d
00000330: c5b6 9dbc 0086 1ebe 09b8 af3d 1441 5b3c
00000340: 3c8f 393d 00ed 4c3e d6b6 39bd 0f61 96bd
00000350: b95b 663d 79ba b13c 3050 8cbd 965c d7bd
00000360: cf29 133e 3945 75bd b743 f63d 4191 9b3d
00000370: ff91 e0bc 5276 13bd 1d00 f5bc 64db 293d
00000380: 207e 9c3c 52c3 eabc 1e09 373d 45f2 43bd
00000390: 11f3 aebd 1732 6f3d ddc2 68bd 40fd dfbc
000003a0: 5e22 183e 0c6c edbc da68 70be d20e 35be
000003b0: 7263 17be 0727 b1bd 8b4b 75bc 6c07 f43d
000003c0: 1688 7b3c 3375 a0bd 7ef3 df3a c5ca e1bc
000003d0: bbcf 573d f980 fa3d 8f21 7ebc 46ec 9cbd
000003e0: dcb5 8fbd ea5f 6fbd 0e9c e7bd 838f 6d3c
000003f0: 2cde 0d3e a375 0bbe 6f27 b9bd 4d78 4fbd
-0.021078307 0.08067698 0.066326946 0.18986574 0.105567 -0.0709636 -0.013813412 0.00060781627
-0.11093073 -0.020539988 -0.09998356 -0.08584293 -0.18699358 -0.08927582 0.022354782 0.020377658
-0.022401892 0.18757202 0.01395566 0.02896403 -0.009948922 -0.0086238105 0.14944534 -0.0035784636
-0.08384013 0.17617954 0.015726896 -0.08343814 -0.13106334 -0.058847975 0.016756473 -0.10548549
-0.057289213 0.19426009 0.09438901 0.031308886 -0.13059169 0.037828717 -0.06523635 0.035364367
-0.032518316 -0.06350318 -0.03174799 -0.036892477 0.04458985 0.026467677 -0.106022276 -0.002701721
-0.024979392 -0.05328702 0.04082513 -0.102982394 0.05772548 0.08667372 -0.13714327 0.024609704
0.0799485 -0.07254445 -0.0064123804 0.08705061 0.021472605 0.055925354 -0.107902154 -0.1312185
-0.028327921 0.15593415 0.18124476 -0.028269207 0.16091305 0.10239431 0.0060576396 0.03878801
-0.043693855 0.12434489 -0.016010175 -0.13825528 -0.07553594 0.035550013 0.014757816 -0.03233702
-0.015205907 -0.056411583 0.072188765 0.007711327 -0.0536363 0.013079808 -0.04490736 -0.030759104
0.047852278 -0.04010889 0.013770176 0.1293248 0.08946762 -0.026234701 0.14151798 0.0049755285
-0.018161206 -0.0015282249 -0.034093916 0.012873173 -0.033202305 -0.08219527 0.04096279 0.069237135
-0.14871258 0.0028097313 0.0018336349 -0.17912565 0.101553455 -0.026752012 0.07235967 0.0515692
-0.05927118 -0.06385686 0.05667342 0.029645989 0.049954712 0.11243713 -0.14675236 -0.036215883
0.08230629 0.115382984 -0.024051486 0.02960598 0.041480545 0.05520465 0.060265217 -0.18018866
0.03128755 0.13582623 0.079682685 0.01859574 0.15272005 -0.07677959 -0.08125138 -0.089189254
-0.13584736 0.07146061 -0.050810672 -0.18981831 0.0050203004 0.08034043 0.00017298193 -0.085533485
-0.034849156 -0.059666086 -0.04738262 -0.14299555 -0.018276313 -0.016864624 -0.070084244 -0.06079567
0.033273026 0.03593655 -0.12289175 0.00546834 0.07757825 0.08802702 0.08328074 -0.080390915
-0.068025194 0.09794055 0.06968694 -0.0075751385 -0.0945592 0.038031522 0.07194075 -0.16442811
-0.09734754 -0.21959883 -0.07008504 -0.076346464 0.14408934 0.13214086 -0.045737132 0.23294142
-0.15585706 0.21399224 -0.03931472 -0.14179271 0.13352653 -0.02853818 -0.07893357 -0.103842035
-0.031709787 0.04521383 -0.0010678571 -0.0048707942 -0.04774144 0.18324421 -0.024263235 0.022098996
0.01772268 -0.06414183 0.056364894 -0.016457712 0.055973105 -0.058818422 -0.054080084 -0.22608294
-0.10292266 0.08344301 0.0619566 0.1112501 -0.01925219 -0.15480804 0.08580024 0.013382215
0.045302615 0.20012283 -0.04534038 -0.07342731 0.056239817 0.021695362 -0.06851232 -0.10515706
0.14371417 -0.05988047 0.12024634 0.07596064 -0.027413366 -0.03600151 -0.02990728 0.041468993
0.01910311 -0.02865759 0.04468643 -0.047838468 -0.08542455 0.05839738 -0.05682646 -0.027342439
0.1485686 -0.028982185 -0.23477498 -0.17681435 -0.14784029 -0.08650022 -0.014971624 0.11915478
0.01535227 -0.07834854 0.0017086116 -0.027562508 0.05268834 0.12231631 -0.015510931 -0.07662253
-0.07017109 -0.05844108 -0.11309062 0.014499548 0.13854283 -0.13619094 -0.090407245 -0.050651837

fc2.bias f4 [32]
00000000: 90eb 503d 9eea 59bd 531d 98bd 5d6a 953d
00000010: 8565 34bd 937e 803d 7241 a9bd 9b63 ad3d
00000020: a862 86bd e101 4a3d 19a0 333d 3f6d e5bc
00000030: 0426 e1bb ba4e 21bd 1bf3 893d 8020 ecbd
00000040: d37d ab3c 8202 093b ea2b f13d d942 313d
00000050: 7dda f9bd c199 d03c 189c 8d3d 2ec9 0b3e
00000060: f113 06be 9744 223c df69 463c 1019 22bc
00000070: 2f52 8dbd c70c 113b ffa4 4c3a 57fa 52bb
0.0510059 -0.053202264 -0.07427468 0.07295678 -0.04404213 0.06274142 -0.08264436 0.08466264
-0.06561786 0.049318198 0.043853853 -0.028006194 -0.006870987 -0.03938172 0.06735822 -0.115296364
0.020934021 0.0020906036 0.11775954 0.04327664 -0.121998765 0.02546394 0.06914538 0.13650963
-0.13093545 0.009904048 0.012110203 -0.009893671 -0.06900441 0.002213286 0.0007806569 -0.0032192671

policy_head.weight f4 [9, 32]
00000000: 30b8 043c 07a1 c0bd 2a8e 62bd dc07 92bd
00000010: 12e7 9abd 94a9 9a3d 833a 6ebe 94cc cfbd
00000020: b5a0 05be b1a3 093d dc44 31be e729 57bc
00000030: c0f3 b4bd 2947 ecbd adc3 c43d 6374 503e
00000040: 719a 5e3e 7ac1 2f3c d574 a7bd f604 ea3c
00000050: 68af aa3d bf1a e4bd b3f9 2eba 0021 c13d
00000060: 70a1 003e f63c 123d f8fa 63be 9cbd f73d
00000070: 0734 063e 820d 1a3d a25a a13d 0ed0 eb3d
00000080: 25ee 2ebe 4b7e 0bbe 42f5 2c3d 1b73 523e
00000090: 8925 0f3c e5ff 63bd c75d 19be 9d9b 47bd
000000a0: 4cb8 0f3e 3ae6 3bbe 7cbf fd3a ad90 0bbe
000000b0: ba4a 263e 31a0 8fbe 6c90 e7bd c3ac 79be
000000c0: 87d5 b33d e7fa efbd 0620 823d 43cb 1d3e
000000d0: 6f74 c6bd e4c7 c33d 68a8 a3bc fd1d 003e
000000e0: a792 043e 5a01 c93d 09fa 063e ebc4 74be
000000f0: 2c81 06be 3c3a 38be 8c12 9abd f82a 4ebe
00000100: d749 87bd 7f49 06be f885 d4bd 5d06 8dbe
00000110: 8c09 dfbc dc8b f0bd 7e5c 11bd 72c1 90bd
00000120: 29c6 6a3d f8f0 243e c8a7 233c 427c 2fbe
00000130: a0ab 88bc 113b 21be 45cc 433e 6572 a9bd
00000140: a728 2dbe c332 713d 2a2c 0e3e 74aa aa3d
00000150: cf0c 04be 4f59 9fbd dbae 1abe 00b0 b13d
00000160: dc53 f7bc e504 543c 019e bebb 6e25 033e
00000170: ed24 28be bfd4 fe3d cc60 4d3d 585b 06bd
00000180: 2105 02be 06ef 2f3e 4d63 5ebe 1e38 6abd
00000190: 6582 19be 5ae7 02be 514d a3bc 76c7 2abe
000001a0: c31e c7bd 7198 60bd 94f2 8e3c 78e1 49bd
000001b0: d480 1cbe d2b8 283e 7d1e db3d a3ba cc3c
000001c0: aea6 f53d 25c8 35be 878a 383e 8c6e 083e
000001d0: 6ecb febb 427d 003d 674d 263e d1dd 453e
000001e0: 1b45 9cbc e99b 413e df4e 21bc 003f 853c
000001f0: 5a41 e3bd 59e8 98bc 95dd c33d 8792 82bd
00000200: ed8d 7e3d 63a3 b0bd 3eb8 63bd e456 27be
00000210: 4b99 bebc 06e0 613e 039d 65bb 9b7f 133e
00000220: 4d84 83bc 6579 313d c524 06be ff29 b3bd
00000230: 0919 ca3d fcb6 2a3e dd4b 1f3e ec3c c3bd
00000240: a201 2e3d 0f35 023c 6f3e 733d ce5f 97bc
00000250: a564 ccbd f135 39bd cd23 10bd b043 653d
00000260: 9805 3b3e 559f 103e ce50 e4bd e1d9 1b3d
00000270: 71b0 0cbe eded 623e 07eb 2fbc bf72 c93d
00000280: daf1 b9bc 7545 d23d 28c8 173d 7f91 36be
00000290: 7628 723d 58bb cdbd d82c 3b3e 1a0d 353d
000002a0: 538c 00be 94cd c2bd 176b 29be db7d 8a3e
000002b0: 7396 8fbc 1b4d 54bc de6f 963b 40fc 27be
000002c0: 768f dd3d 0f05 10be ffab 79bd 623a aabd
000002d0: 0899 ad3d 38bb 87bd b512 493d 8395 42be
000002e0: ec49 32bd b40e 133e 967e 273e 6905 993d
000002f0: d1b6 3dbd a4cd 09be 507e 64bd 8d3e 97bd
00000300: 10de 5c3d 93c5 1b3e 8b50 363d a83a babd
00000310: e454 6cbe 0591 5e3d c209 85bd ab49 42be
00000320: a8d0 bf3b 75b2 593a 3a4a 14be 435e 273e
00000330: be9a 023e 5836 89be 8419 743d 0fe6 693e
00000340: e68d 4bbe f211 e33d dcc9 043e c778 fcbd
00000350: f091 983d df83 d13d 58b9 bb3d d8f6 573e
00000360: 3ce5 eb3c 57f1 1e3e 6023 83be 9b4a 1b3d
00000370: 3a00 70bd 8edd a7bb 4070 c5bd c2a4 15bd
00000380: d66d 14bc 010d 533d 3945 30be e176 513e
00000390: cd35 d63d 970c 77be f878 d93d fa08 40be
000003a0: 5b23 1abe 95ed 2ebd 68ef e23d 77fe b0bd
000003b0: 5e88 1c3c 7d4b e23d 1d1f d6bd fe5d 30be
000003c0: 4881 163d a0e9 87bc cee9 933d 74a0 db3d
000003d0: 270f b7ba f7c6 98bc 35d4 7a3d 11fe 47be
000003e0: 6689 013e 2437 ea3d 68d9 943d e7e6 a1bd
000003f0: 5c09 a2bd f1fe 9fbd b429 31be 05a7 f13d
0.008100554 -0.094057135 -0.05531136 -0.07130405 -0.075636044 0.07551876 -0.23264508 -0.10146442
-0.13049586 0.033603374 -0.17311424 -0.013132549 -0.08835554 -0.1153701 0.09607635 0.20356898
0.21738602 0.010727281 -0.08176581 0.028566819 0.08334237 -0.11137914 -0.00066747813 0.094301224
0.12561584 0.035702668 -0.22263706 0.12096712 0.13105784 0.03761054 0.07878615 0.11514293
-0.17083032 -0.13622396 0.042226084 0.20551722 0.008736976 -0.055663962 -0.1497718 -0.04873239
0.14035147 -0.18349543 0.0019359435 -0.13629408 0.16239443 -0.28051904 -0.11306843 -0.2438231
0.087809615 -0.11717778 0.06353764 0.1540957 -0.09690177 0.095596105 -0.019977763 0.1251144
0.12946568 0.09814711 0.13181318 -0.23903243 -0.13135213 -0.17990965 -0.07523069 -0.20133579
-0.06605881 -0.13113974 -0.10377115 -0.27543917 -0.027226232 -0.11745426 -0.035488598 -0.07068147
0.057317887 0.16107547 0.009988733 -0.17137244 -0.0166834 -0.15745188 0.19120891 -0.08273772
-0.16910039 0.0588863 0.13884035 0.083332926 -0.12895511 -0.07780706 -0.15105765 0.086761475
-0.030191354 0.01294062 -0.0058171754 0.12807247 -0.16420336 0.12442922 0.05014114 -0.032801956
-0.12697269 0.17181024 -0.21717568 -0.057182424 -0.14991148 -0.12783566 -0.019934328 -0.16677651
-0.09722664 -0.05483288 0.017449655 -0.04928729 -0.15283519 0.16476753 0.106991746 0.02499134
0.11994682 -0.1775213 0.18021594 0.1332342 -0.0077757156 0.031369455 0.16240464 0.19322897
-0.01907592 0.18907131 -0.0098454645 0.016265392 -0.11096449 -0.01866548 0.09563748 -0.06375604
0.06214707 -0.086249135 -0.05559563 -0.1634174 -0.023266455 0.22058114 -0.0035036213 0.14404146
-0.016054297 0.04332866 -0.13099964 -0.087482445 0.09868056 0.16671365 0.15556283 -0.09533104
0.042482026 0.0079472205 0.059385713 -0.0184783 -0.09980134 -0.04521746 -0.035190392 0.055972755
0.18263853 0.1412328 -0.11148225 0.038049582 -0.13739182 0.22161074 -0.010737187 0.09836339
-0.022698332 0.10267154 0.03705612 -0.1782894 0.059120618 -0.100454986 0.18278825 0.044201948
-0.1255353 -0.09511867 -0.16544758 0.27049145 -0.017527794 -0.0129578365 0.0045909723 -0.1640482
0.108183786 -0.1406443 -0.060955044 -0.08311917 0.08476454 -0.06627506 0.049090106 -0.19002347
-0.04352753 0.14361078 0.16356882 0.07471735 -0.046316925 -0.13457352 -0.055784523 -0.073849775
0.053922713 0.15212087 0.044510406 -0.09093219 -0.23079258 0.05433752 -0.06496002 -0.18973415
0.005853731 0.0008304485 -0.1448144 0.16344552 0.12754342 -0.26799273 0.059594646 0.22841667
-0.19878349 0.11087407 0.12967628 -0.12327724 0.0744971 0.102302305 0.09166211 0.21090257
0.02879583 0.15521751 -0.25612926 0.037912946 -0.058593966 -0.005122847 -0.096405506 -0.03653408
-0.00905939 0.051526073 -0.17213906 0.20455505 0.104594804 -0.24125896 0.10618776 -0.18753424
-0.1505255 -0.042707045 0.11080819 -0.08642285 0.009553997 0.110495545 -0.10455153 -0.17223355
0.036744386 -0.016590893 0.07222329 0.107239634 -0.0013966308 -0.018649561 0.061237533 -0.19530512
0.1265007 0.114362985 0.072680295 -0.07905369 -0.079119414 -0.07812298 -0.17301065 0.117994346

policy_head.bias f4 [9]
00000000: 3ee1 e23b cf69 ef3d 5c7d 153d 0a39 ddbd
00000010: d879 84bc 5767 963c 1fa4 c3bd 4452 2a3d
00000020: 1379 0ebe
0.0069238236 0.11690103 0.036496505 -0.10801895 -0.01617138 0.018359823 -0.09552788 0.04158236
-0.13913374

value_head.0.weight f4 [16, 32]
00000000: 87aa 69be 9310 943d 568c 38be f929 6e3d
00000010: 6c82 9c3c 0699 633e b152 62bc 5fb1 9f3d
00000020: 0a41 4b3e 6cc8 843e bf5b 9c3d 262b 4d3d
00000030: d375 1e3d 54a8 2c3e f327 213d 99f2 643e
00000040: 4aa6 56ba cd70 9dbd 33d3 1ebe eafc d33c
00000050: a0f0 0f3d 63bc 8fbc 2baa 80bd c290 2e3d
00000060: 7750 14be 60a3 263d 88b9 093e 620b 4c3d
00000070: b543 1d3d 00eb 05be 70ff 583e efc7 1abc
00000080: 8deb 65be ac2e f73d a2ac 0c3e d071 61bd
00000090: 138d 3bbe bf56 a5bd 1d1a e43d cfe0 af3d
000000a0: fd93 273e 4d56 fb3d a9a4 a8bd 4954 203e
000000b0: 3890 a1bd 3ab5 263e 66e0 12be d352 b83d
000000c0: 9f21 c1bd e251 453d c7e2 4abe 1c4b 6bbe
000000d0: 5ca9 8b3d 3529 db3d beb2 d5bd 3ebf d83c
000000e0: 4456 953d 995f 83be 923b 023e 2618 3cbd
000000f0: a412 1ebe c93c 373e d5d9 61bc f971 90be
00000100: dba1 223e 8fdf d53d 3d59 10bc 1f1a 4e3e
00000110: 5717 c7bd 10a2 2bbd c367 3d3d d87d 613d
00000120: 0527 9d3d 9070 213e c86d fcbd 18fa bf3d
00000130: 27db 7abd 93e1 3fbd 15b9 d63d 1393 0bbd
00000140: bb75 9f3b 020b 62bd 7fb1 2cbe febc 90bd
00000150: 8888 0dbd 92ce c2bd d5cc 8a3d f8f1 b33c
00000160: 1923 2c3e c145 9f3d 2fc8 88bd 7a6d 08be
00000170: 921d febd 2078 2cbd 3e49 463b b313 30be
00000180: 0154 b1bd 8025 593e cb0b eab9 bc9d 3fbe
00000190: bdb9 dabd aff9 693d 5db5 a33d f761 40be
000001a0: 961a ab3d 1109 5ebc c08e c03b b0a1 34be
000001b0: 9158 023e 3ec6 383e 5967 41bd dd75 a4bd
000001c0: 91ab 17bc 74bb 49be 76bb 55be 6092 cebd
000001d0: 6260 cdbd f381 093d a6b2 163e 884e 3a3e
000001e0: 55cd 1ebe c01b 3dbe e3c7 ac3c 8745 6e3d
000001f0: c825 213d ecd4 753d a680 bc3d 27c0 d5bd
00000200: e2c4 c7ba 0b34 bfbd e891 e3bd edfc 0c3e
00000210: 9695 1fbe 36b9 203d 4835 b23c 8ea6 993b
00000220: 0afa 1cbe c404 4c3d 0922 b93d 0b92 143e
00000230: d0e9 a1bd 01ca 29be 141b f0bd 8ec1 d5bd
00000240: ebbb efbd d2ca 193e 480a e8bd ecb6 ea3d
00000250: a539 19be 97cc 2fbe 1648 06be f89d 05be
00000260: fc0a cbbc 414b 93bd e0dc fbbc 433e 8cbd
00000270: b04c 39bc a131 163e 8261 5d3d e860 1dbe
00000280: bfd1 d5bd 2ee3 413e 603f 853d 16ca c3bd
00000290: 5131 ddbc 8d0d 0dbe c913 8dbc c608 c3bd
000002a0: de1e 0bbe 13e0 3fbe a086 08bd be35 a53d
000002b0: 24c5 9c3d 2109 c3bd 1f76 5fbd 9b07 efbd
000002c0: 7703 f83d 8d63 e2bc 23dc 173e 8d01 183e
000002d0: 3f06 00bc 9fc9 32bd e740 0dbe bd16 a83d
000002e0: 2316 9c3d fe36 ca3b 212a 223e b847 753d
000002f0: 439c 523c 01cb cc3d 3114 de3d e51c 09bd
00000300: b854 583e 67b9 6cbc 803c 093e 22c1 aa3c
00000310: a8a7 9c3d c34b fb3d fdcc 343d a19d d8bd
00000320: 2e8c e5bd 7d51 e2bd 28bd d63d 221f 20be
00000330: 6390 303d 8092 2dbe 80ca 6f3e ccbe a9bc
00000340: 68d6 583e 79b1 283d b293 353d a207 a63d
00000350: bb39 3a3e 1efe 003e 2991 48bd e808 b93c
00000360: b36d 133e cbaa ce3d 0c82 bdbd 4df1 a7bd
00000370: db7f 1cbd 722b b1b9 e1a4 14be 71dc b33b
00000380: dd59 7c3c 930a 04be 512d 21be 9469 413d
00000390: 0968 0f3e 6ac9 18bd 5ce3 453e 654e 33be
000003a0: 619f 793e 5542 db3c c260 013e 87e7 013d
000003b0: 4221 0e3e a053 c63b 6b10 98bd fc7b cc3d
000003c0: 38fa 98bd 0fd7 1bbd 3110 00be 7236 18be
000003d0: b240 4fbd bd2a 1c3e 46e0 a1bd d1b3 91bd
000003e0: 7ea4 0b3e f78f b93d fbc5 e3bc 6942 013d
000003f0: dcac 04be 5267 cd3d dee0 413d b609 fa3d
-0.22818957 0.07229724 -0.18022284 0.058145497 0.019105159 0.22226343 -0.0138136605 0.07797503
0.19849029 0.2593416 0.07634687 0.050089978 0.038686585 0.16861087 0.03934474 0.22358169
-0.0008188231 -0.07687531 -0.15510254 0.025877435 0.035141587 -0.017545884 -0.06282457 0.04261852
-0.1448382 0.04068315 0.13449681 0.049815543 0.03839465 -0.13077927 0.21191192 -0.009447082
-0.22453137 0.12069449 0.13737729 -0.05504018 -0.18315534 -0.08073186 0.11137793 0.08587801
0.16365047 0.1227232 -0.082345314 0.15657152 -0.07888836 0.1628007 -0.14343414 0.090001725
-0.09430241 0.048173793 -0.19813071 -0.2297787 0.06819412 0.10701219 -0.10434483 0.026458379
0.072918445 -0.25658873 0.12718037 -0.045921467 -0.15436798 0.17894281 -0.013784845 -0.28211954
0.15882055 0.10443031 -0.008810339 0.20127152 -0.097212486 -0.0419026 0.046241533 0.055051655
0.07673458 0.15765595 -0.123256266 0.093738735 -0.061244156 -0.046845984 0.1048452 -0.034075808
0.0048663295 -0.05518628 -0.16864584 -0.070672974 -0.034554034 -0.095120564 0.0677735 0.021965966
0.16810264 0.077769764 -0.06678807 -0.13323012 -0.12407984 -0.042106748 0.0030256058 -0.17195015
-0.086586006 0.21205711 -0.00044640744 -0.18712515 -0.10679958 0.057122882 0.07993577 -0.1878737
0.0835468 -0.013551966 0.005876392 -0.17639804 0.12729098 0.18044373 -0.0472177 -0.08030293
-0.009257213 -0.19700414 -0.20872292 -0.100865126 -0.10028149 0.033571195 0.14716586 0.1819402
-0.15508015 -0.18467617 0.021091407 0.058171775 0.03934267 0.06001751 0.09204225 -0.10437041
-0.0015241171 -0.09336098 -0.11111814 0.13768359 -0.15584406 0.03923913 0.021753922 0.0046890443
-0.15329757 0.049809232 0.09039695 0.14508836 -0.07905924 -0.16580965 -0.11723915 -0.10437308
-0.117057644 0.15018776 -0.11330086 0.11460671 -0.14963396 -0.17167889 -0.13113436 -0.13048542
-0.024785511 -0.07192088 -0.03074497 -0.06847813 -0.011309788 0.1466737 0.05404807 -0.15368998
-0.104403965 0.18934318 0.065062284 -0.09560029 -0.027001055 -0.137747 -0.017221348 -0.09523158
-0.13585994 -0.18737821 -0.033331513 0.08066891 0.07654789 -0.095232256 -0.05455601 -0.116713725
0.12110036 -0.02763536 0.14830069 0.14844342 -0.007813989 -0.043649312 -0.1379429 0.08207462
0.0762141 0.0061711064 0.15836383 0.05988285 0.0128546385 0.099996574 0.10843695 -0.03347482
0.21126068 -0.0144485 0.13401985 0.020844046 0.076491654 0.1227031 0.044140805 -0.1057694
-0.11208378 -0.11050699 0.104852974 -0.15636876 0.043106448 -0.16950417 0.23417091 -0.020720862
0.2117554 0.041184876 0.044330306 0.081069246 0.18186085 0.12596938 -0.04896656 0.022587255
0.14397316 0.1009117 -0.0925332 -0.08200321 -0.03820787 -0.0003379244 -0.14516021 0.005488925
0.015402284 -0.12894659 -0.15739943 0.047219828 0.1400453 -0.03730146 0.19325012 -0.17510374
0.24377204 0.026765028 0.12634566 0.031714942 0.13879874 0.0060524493 -0.074250065 0.09984586
-0.074696004 -0.038046893 -0.12506177 -0.14864519 -0.050598808 0.15250678 -0.07904105 -0.071143754
0.13636968 0.09060662 -0.027804365 0.031557474 -0.12956566 0.100294724 0.04733359 0.122088835

value_head.0.bias f4 [16]
00000000: 17f8 9a3d d344 763d fe41 32be 4b88 abbd
00000010: 7901 90bc 61f9 f73d e3de ba3d 8153 013e
00000020: 2d44 3dbc 319d 67bd e4d9 ad3d b1fd 1cbd
00000030: d3cb 973d a43b 483e 6c55 e2bd 1948 303e
0.07566851 0.06012423 -0.17407987 -0.08375605 -0.017578827 0.12108112 0.091245435 0.1262951
-0.011551899 -0.056546394 0.08488825 -0.038327876 0.07411923 0.19554001 -0.11051449 0.17215003

value_head.2.weight f4 [1, 16]
00000000: c1f8 8d3e d864 ec3d 434c 41be 002a e53d
00000010: c79c d2bd a964 d2bc 50b7 debd b8b8 1f3d
00000020: f5b8 273e 90db 22be bdf8 f73d 93cc 253e
00000030: a7ad a1bd 7c5c 41be b39b 3abd 5f62 92bd
0.27728847 0.11542672 -0.18876748 0.111896515 -0.10283809 -0.025682764 -0.10874808 0.03899452
0.1637915 -0.15904069 0.1210799 0.1619132 -0.0789445 -0.18882936 -0.045558643 -0.07147669
