model2_20250707_152144_best.pth (torch, 20944 bytes, 9 tensors)

fc1.weight f4 [64, 19]
0.09627376 -0.143495 -0.121536925 -0.117273845 0.07434822 -0.18451023 0.05212692 -0.05858234
0.21265313 0.18315248 0.05561214 -0.0534639 -0.15937138 0.12037853 0.16239741 0.14134753
0.1650506 0.20190251 -0.021477543 0.17145544 0.20675488 -0.018910162 0.09040032 -0.1086553
0.15515697 -0.03624868 -0.21901307 -0.030098276 0.018867666 0.046362888 0.10746374 0.05349276
0.0005153453 -0.05175255 -0.09454469 -0.121176794 -0.1436326 -0.03326624 0.083261214 -0.04915837
0.02262032 -0.06989211 -0.09841472 -0.07148322 -0.12645027 0.18894976 -0.10676816 -0.14053382
0.09222828 -0.11041172 -0.07272138 -0.12820593 0.15318954 -0.16116951 0.07871197 -0.09510289
0.19453104 0.06906991 0.15615836 0.106549256 0.017069208 0.014626822 0.019013723 -0.14610875
-0.010324351 0.2292988 0.1426092 -0.08273715 -0.15038882 0.1665507 0.18688005 -0.09164429
-0.08789223 -0.18740515 0.15726845 -0.1853544 -0.1651433 -0.039677706 0.015199234 0.007578214
0.15117764 -0.11168635 0.14698295 0.19579963 0.113586664 -0.07815961 -0.14273445 0.017388081
-0.04572659 -0.027868502 -0.0016338963 -0.074153766 -0.18021722 -0.116182834 0.11379073 0.15368578
-0.21026146 -0.058868468 -0.1984604 0.15407959 -0.057506546 0.024992464 0.06967639 0.22410682
0.086307704 -0.21687332 0.026540568 0.20476848 -0.09740471 -0.19013906 0.15225776 -0.07619776
-0.014142523 0.12603621 0.18666358 -0.1532417 -0.1290778 -0.004230174 0.0169627 -0.12310032
-0.082280695 0.19837262 -0.16995385 0.19774607 0.19644168 0.107137755 0.020761136 -0.09724512
-0.09628155 -0.06312376 -0.20414941 -0.07800302 0.165618 0.1915934 0.16565995 -0.19683675
0.18476428 0.089753896 -0.09729303 0.20815296 0.0938052 0.19032355 0.21544367 -0.116152525
-0.07212934 -0.12015119 0.08405432 0.05639881 -0.051413536 0.012857484 -0.062424496 -0.0644572
0.10280681 -0.15935716 -0.2109215 0.031750895 0.19200076 -0.132678 -0.13796669 -0.19482574
0.05688554 0.013021082 0.022584574 -0.20106515 0.080243416 -0.07478243 -0.19618617 0.04286934
-0.17001155 -0.033011384 0.0918501 0.22815011 0.06281396 0.11265119 -0.0526577 0.20907395
-0.067437716 0.010585774 -0.04377983 0.17984408 0.16105416 -0.10298537 0.19514826 0.08374846
-0.1419336 0.20609811 -0.017922718 0.05766582 0.1871174 0.09283862 -0.1780949 -0.21802147
0.20934577 -0.13856013 0.027937766 0.12755752 -0.10435244 -0.015953615 0.12277473 0.028750723
0.104419574 -0.18793023 0.13313389 0.15586206 -0.13922738 0.1123802 0.1502362 0.06794022
0.21737464 0.10148644 -0.046081595 -0.11373726 0.072029494 0.15809518 0.13855352 0.09904667
0.15387377 -0.2021059 -0.1477615 0.06401608 -0.17747381 0.022306954 -0.053564306 -0.16985208
0.155427 0.066623665 -0.07827113 0.21628414 -0.20698705 -0.09517386 -0.0782912 -0.06881865
-0.14347038 -0.19695537 0.19582076 -0.13874438 0.21740465 -0.117070556 0.1054981 -0.15477441
-0.16647677 0.12878078 0.051302116 -0.07862758 -0.071378365 0.12645906 0.15543345 0.20731486
0.116181694 -0.032968637 -0.15030473 -0.016276497 0.05231538 0.00290747 0.011991347 -0.16877148
00000000: 2d2b c53d 5af0 12be 5ae8 f8bd 452d f0bd
00000010: e143 983d 40f0 3cbe 0a83 553d 09f4 6fbd
00000020: bec1 593e 538c 3b3e 8ec9 633d f6fc 5abd
00000030: 4032 23be 0589 f63d 824b 263e 68bd 103e
00000040: 0603 293e 88bf 4e3e acf1 afbc 0492 2f3e
00000050: 8db7 533e 7ce9 9abc ce23 b93d ac86 debd
00000060: 78e1 1e3e 7f79 14bd f644 60be a990 f6bc
00000070: 5d90 9a3c 03e7 3d3d f315 dc3d 391b 5b3d
00000080: 3d18 073a 7bfa 53bd a5a0 c1bd 8a2b f8bd
00000090: 6d14 13be 2e42 08bd db84 aa3d 495a 49bd
000000a0: 404e b93c 9823 8fbd a88d c9bd cb65 92bd
000000b0: 2e7c 01be 0c7c 413e 44a9 dabd 19e8 0fbe
000000c0: 2ee2 bc3d 8a1f e2bd f2ee 94bd 6a48 03be
000000d0: b8dd 1c3e 9f09 25be be33 a13d 4ec5 c2bd
000000e0: 2533 473e 8674 8d3d fae7 1f3e 7f36 da3d
000000f0: b9d4 8b3c 57a5 6f3c abc2 9b3c 889d 15be
00000100: 7727 29bc 4ecd 6a3e 2508 123e 1872 a9bd
00000110: 87ff 19be 448c 2a3e 7c5d 3f3e 00b0 bbbd
00000120: d700 b4bd 23e7 3fbe fb0a 213e 8bcd 3dbe
00000130: 531b 29be 1785 22bd 3506 793c ab52 f83b
00000140: 50ce 1a3e d0bb e4bd b382 163e b37f 483e
00000150: 20a0 e83d 2512 a0bd fb28 12be 7371 8e3c
00000160: ce4b 3bbd 7c4c e4bc 7628 d6ba eedd 97bd
00000170: dd8a 38be 44f1 edbd 1d0b e93d ce5f 1d3e
00000180: c84e 57be 1020 71bd 3439 4bbe 0ac7 1d3e
00000190: fc8b 6bbd ffbc cc3c 7fb2 8e3d 427c 653e
000001a0: 18c2 b03d 0a14 5ebe 9b6b d93c d4ae 513e
000001b0: 1f7c c7bd d0b3 42be 75e9 1b3e 920d 9cbd
000001c0: 0ab6 67bc a30f 013e bd24 3f3e 64eb 1cbe
000001d0: f92c 04be 459d 8abb 5cf5 8a3c 051c fcbd
000001e0: c882 a8bd 3122 4b3e 6208 2ebe f27d 4a3e
000001f0: 0228 493e 0a6b db3d 4213 aa3c 7328 c7bd
00000200: 432f c5bd 0847 81bd 8b0c 51be 0cc0 9fbd
00000210: c497 293e 0f31 443e c3a2 293e 938f 49be
00000220: d932 3d3e e4d0 b73d 9141 c7bd 0d26 553e
00000230: f11c c03d 2de4 423e 449d 5c3e 60e1 edbd
00000240: 8cb8 93bd d411 f6bd ac24 ac3d 7002 673d
00000250: 0097 52bd 32a8 523c d4b0 7fbd 2302 84bd
00000260: 608c d23d 862e 23be cefb 57be 3a0d 023d
00000270: d99b 443e bedc 07be 2447 0dbe 6680 47be
00000280: d000 693d 6056 553c 4903 b93c 06e4 4dbe
00000290: a956 a43d 8827 99bd 07e5 48be c397 2f3d
000002a0: 8217 2ebe f236 07bd e81b bc3d 2fa0 693e
000002b0: 9ba4 803d abb5 e63d 9aaf 57bd 7b17 563e
000002c0: c91c 8abd f46f 2d3c 7b52 33bd 0c29 383e
000002d0: 62eb 243e fee9 d2bd f2d4 473e 5084 ab3d
000002e0: 0b57 11be 620b 533e aad2 92bc ff32 6c3d
000002f0: b49b 3f3e 2d22 be3d 825e 36be 0541 5fbe
00000300: bd5e 563e b5e2 0dbe bedd e43c 709e 023e
00000310: bbb6 d5bd 28b1 82bc 5171 fb3d a386 eb3c
00000320: eed9 d53d c870 40be 4054 083e 4e9a 1f3e
00000330: 9f91 0ebe 9727 e63d 85d7 193e 3e24 8b3d
00000340: 7597 5e3e 1fd8 cf3d 0ec0 3cbd 15ef e8bd
00000350: 3384 933d b4e3 213e f9e0 0d3e fbd8 ca3d
00000360: 1691 1d3e d9f4 4ebe ca4e 17be dd1a 833d
00000370: b2bb 35be 13bd b63c 3f66 5bbd b4ed 2dbe
00000380: 4128 1f3e fd71 883d 9d4c a0bd 9779 5d3e
00000390: 6af4 53be 83ea c2bd 2357 a0bd cbf0 8cbd
000003a0: e6e9 12be abae 49be 3d85 483e 0213 0ebe
000003b0: 539f 5e3e b0c2 efbd 630f d83d 2f7d 1ebe
000003c0: e378 2abe 1cdf 033e 2b22 523d 7f07 a1bd
000003d0: d22e 92bd 7c7e 013e f229 1f3e 594a 543e
000003e0: abf0 ed3d 1f0a 07bd 7ce9 19be 4a56 85bc
000003f0: a748 563d 418b 3e3b 5b77 443c 6ed2 2cbe

fc1.bias f4 [64]
-0.047429796 -0.16657619 0.054389466 0.022617867 0.18878168 0.11427686 0.13971782 -0.117135175
-0.12934485 -0.1551371 0.13396907 0.102925435 0.12139352 -0.20504679 -0.032953218 0.11739468
0.073768675 -0.13902181 0.0060878554 0.20409572 0.06284938 0.20269254 0.1889126 0.031917557
0.013170511 -0.0437371 -0.096576065 0.07811079 0.21985382 -0.03665868 0.07975402 -0.17267495
0.09818678 0.21623239 0.17103143 -0.041950002 0.026861606 0.1671248 0.123837136 -0.19464628
0.043124996 0.11796494 -0.0528152 -0.006118216 0.056735963 0.17312466 -0.22870353 0.19502915
0.10621489 0.14316615 -0.085684046 -0.14452025 0.23148641 -0.05885416 -0.10828615 0.042581785
0.20592788 0.10668423 0.036563706 0.047729466 0.21377786 0.2217099 0.03787738 -0.20158418
00000000: bf45 42bd f392 2abe 7dc7 5e3d 1b49 b93c
00000010: fc4f 413e fd09 ea3d 3012 0f3e 91e4 efbd
00000020: fa72 04be 43dc 1ebe 302f 093e 92ca d23d
00000030: 2a9d f83d c9f7 51be f4f9 06bd 9f6c f03d
00000040: 0814 973d bc5b 0ebe a27c c73b 78fe 503e
00000050: 2db7 803d a28e 4f3e 4e72 413e fcbb 023d
00000060: 21c9 573c ac25 33bd acc9 c5bd 8df8 9f3d
00000070: 5c21 613e 6927 16bd 1356 a33d b4d1 30be
00000080: 2716 c93d 066c 5d3e dd22 2f3e c4d3 2bbd
00000090: df0c dc3c c322 2b3e 539e fd3d 5b51 47be
000000a0: d6a3 303d 9a97 f13d c054 58bd 517b c8bb
000000b0: f863 683d 9747 313e 4231 6abe b9b5 473e
000000c0: 3187 d93d 269a 123e 1e7b afbd 1efd 13be
000000d0: c60a 6d3e 0f11 71bd 21c5 ddbd 3d6a 2e3d
000000e0: c2de 523e 437d da3d d3c3 153d f97f 433d
000000f0: 95e8 5a3e ec07 633e 5025 1b3d 156c 4ebe

fc2.weight f4 [32, 64]
-0.057777204 -0.10511617 0.06360851 0.10319232 0.08023536 0.051576193 -0.024833994 -0.06442969
-0.029076379 0.085863695 0.021288386 0.07326664 -0.1324569 -0.120618895 -0.105415724 0.108795
-0.082561865 0.1015737 -0.09586196 0.058035452 0.047673274 0.018113714 -0.122307815 -0.07734317
0.032129128 -0.10189009 -0.08419417 0.013468897 -0.024748063 0.040883824 0.015341207 -0.04436392
-0.12695941 0.103274815 -0.08387361 -0.07404751 -0.00012296694 0.039021727 0.06166987 -0.11617453
0.101391375 -0.103711456 -0.1265326 0.059906535 -0.004429436 -0.08413644 0.007371125 -0.088749886
0.024086343 -0.07001229 -0.017221317 0.09813137 0.0524119 -0.013887046 -0.03186819 -0.014941676
-0.09250037 -0.13392663 0.011220346 -0.05915049 0.01361563 -0.020947436 0.03792587 -0.117692694
0.084897645 0.035684332 0.11442777 0.0044195075 0.059077945 -0.11569723 -0.01800607 0.0796604
-0.06344606 -0.06151693 0.10722319 0.042007152 -0.10511522 0.08619543 0.01811254 -0.10683893
-0.037462916 0.04200201 -0.0741782 -0.057399586 0.057628356 0.029306872 0.13069354 -0.012210291
-0.09039263 0.05613061 0.0629949 0.13289121 -0.011247047 -0.04734268 -0.106157824 -0.08801873
-0.049949557 0.087083645 -0.09290862 -0.042054616 0.11356856 -0.074874744 -0.06470305 0.10500395
0.064537905 -0.003405154 0.06528045 -0.05441452 -0.047547262 0.12050695 -0.09242586 0.0026093798
0.0681204 0.036651082 0.08929291 0.084209114 0.061156936 -0.016637702 -0.04947485 -0.071053736
0.10968141 -0.091040075 -0.050415117 -0.039967462 -0.052510757 0.03897053 0.10205081 0.0818473
-0.0056512575 0.07764022 -0.0062202327 0.06517052 -0.02491366 -0.08488003 0.08375145 -0.0477919
0.10003019 -0.025679817 0.07920568 0.021455837 -0.121378615 -0.05935477 0.0063504917 0.05876966
0.057159852 0.09523237 0.010263189 -0.05295009 -0.09799031 0.06582012 -0.010710083 0.021621361
0.093178734 -0.11555044 -0.09554781 0.042320434 -0.032046657 -0.09482428 0.10920809 0.09409346
0.07696067 0.04680706 -0.0821516 -0.018729892 -0.019844702 0.06201646 -0.091518514 0.015187196
0.0069263065 0.075594015 0.005696667 -0.052888464 -0.05843219 -0.1025739 0.017665455 -0.051018685
-0.03868066 -0.007930861 0.108131535 -0.084899366 0.093399055 -0.021311203 0.0065621575 -0.10239844
-0.116164975 -0.053462 0.00059093046 -0.072610386 -0.025987912 0.020923989 -0.061863054 0.030768037
-0.062006667 0.035162635 -0.034381304 0.012576705 0.088236056 -0.0389219 0.05995263 -0.10257431
-0.05832114 0.115876086 0.058202323 0.042227607 -0.080889486 0.026772313 -0.113904186 0.09368318
-0.094611704 -0.10300022 -0.05001354 -0.12046664 -0.07623399 0.018772755 -0.08013435 0.027185414
0.026852889 -0.12024185 -0.042361517 -0.1252733 -0.060114365 0.042056277 0.111567795 0.017134115
-0.08175003 0.012524051 0.111627005 0.10702118 -0.024426483 0.014910286 0.10981146 -0.12936501
0.05376761 0.12957601 0.0277281 0.0848918 0.07424774 0.07735026 -0.08457586 -0.10838837
0.0627467 0.079366036 0.002911364 -0.067900665 0.04983581 0.088360466 0.0028392682 0.019204326
-0.037524406 -0.040411893 -0.10617368 0.109195516 -0.032744408 0.034524217 0.07197732 -0.053407785
00000000: caa7 6cbd 2647 d7bd 2e45 823d 7f56 d33d
00000010: 7052 a43d 8f41 533d a970 cbbc b7f3 83bd
00000020: 9631 eebc 4ed9 af3d fb64 ae3c d20c 963d
00000030: c8a2 07be 0a07 f7bd 33e4 d7bd eacf de3d
00000040: 3216 a9bd df05 d03d 4653 c4bd 95b6 6d3d
00000050: 0d45 433d 3663 943c 857c fabd 1966 9ebd
00000060: d599 033d c0ab d0bd fe6d acbd a6ac 5c3c
00000070: 73bc cabc cc75 273d b059 7b3c f1b6 35bd
00000080: a601 02be bf81 d33d edc5 abbd 39a6 97bd
00000090: b0f0 00b9 3fd5 1f3d 8c99 7c3d e9ec edbd
000000a0: 48a6 cf3d ac66 d4bd c391 01be 8e60 753d
000000b0: cd24 91bb ba4f acbd 7a89 f13b 80c2 b5bd
000000c0: b950 c53c 9a62 8fbd b813 8dbc 1af9 c83d
000000d0: dcad 563d 7e86 63bc 3888 02bd eecd 74bc
000000e0: d670 bdbd 1024 09be 8bd5 373c c947 72bd
000000f0: 1714 5f3c f599 abbc 2858 1b3d de08 f1bd
00000100: d1de ad3d bc29 123d 1b59 ea3d 84d1 903b
00000110: b7fb 713d abf2 ecbd 7781 93bc fe24 a33d
00000120: 02f0 81bd 2df9 7bbd d597 db3d b10f 2c3d
00000130: a646 d7bd 3b87 b03d c060 943c 5ece dabd
00000140: b772 19bd 4d0a 2c3d bdea 97bd d41b 6bbd
00000150: b60b 6c3d f714 f03c 87d4 053e ac0d 48bc
00000160: c51f b9bd 36e9 653d 7803 813d a214 083e
00000170: 8945 38bc 66ea 41bd 4669 d9bd 2a43 b4bd
00000180: e897 4cbd e958 b23d e046 bebd 7641 2cbd
00000190: a296 e83d ee57 99bd 0883 84bd 500c d73d
000001a0: 732c 843d 0129 5fbb c2b1 853d c2e1 5ebd
000001b0: ebc0 42bd 59cc f63d c549 bdbd 2102 2b3b
000001c0: b582 8b3d 721f 163d 34df b63d d475 ac3d
000001d0: b27f 7a3d ca4b 88bc 24a6 4abd 9f84 91bd
000001e0: a6a0 e03d 3873 babd 1580 4ebd ecb4 23bd
000001f0: 8515 57bd 909f 1f3d 0400 d13d 8f9f a73d
00000200: 2f2e b9bb d601 9f3d 18d3 cbbb 1f78 853d
00000210: bb17 ccbc 95d5 adbd e185 ab3d 70c1 43bd
00000220: a1dc cc3d 7b5e d2bc 9636 a23d 27c4 af3c
00000230: 5a95 f8bd fd1d 73bd c917 d03b 74b8 703d
00000240: 7320 6a3d 3009 c33d ef26 283c 32e2 58bd
00000250: 25af c8bd b3cc 863d 5879 2fbc 481f b13c
00000260: 7ed4 be3d b6a5 ecbd 92ae c3bd 3158 2d3d
00000270: 5b43 03bd 3b33 c2bd 7ea8 df3d 12b4 c03d
00000280: 8e9d 9d3d c2b8 3f3d 193f a8bd 6e6f 99bc
00000290: 5b91 a2bc f904 7e3d 0f6e bbbd b8d3 783c
000002a0: 12f6 e23b 09d1 9a3d 1bab ba3b 93a1 58bd
000002b0: 9856 6fbd 4412 d2bd 25b7 903c f8f8 50bd
000002c0: 9d6f 1ebd 71f0 01bc 1174 dd3d b8df adbd
000002d0: 0148 bf3d d594 aebc 5e07 d73b 46b6 d1bd
000002e0: e7e7 edbd f8fa 5abd ace8 1a3a c1b4 94bd
000002f0: 9ae4 d4bc c968 ab3c 1d64 7dbd 400d fc3c
00000300: b4fa 7dbd b206 103d 69d3 0cbd 860e 4e3c
00000310: 1bb5 b43d 926c 1fbd e490 753d 7b12 d2bd
00000320: 26e2 6ebd 7150 ed3d 8f65 6e3d dbf6 2c3d
00000330: 63a9 a5bd 9c51 db3c 9946 e9bd f8dc bf3d
00000340: c8c3 c1bd c8f1 d2bd ffda 4cbd 37b7 f6bd
00000350: 9120 9cbd 52c9 993c 7a1d a4bd f2b3 de3c
00000360: 97fa db3c 5c41 f6bd 4583 2dbd a547 00be
00000370: 7b3a 76bd 3443 2c3d a87d e43d d85c 8c3c
00000380: 8f6c a7bd ad31 4d3c b39c e43d ec2d db3d
00000390: 0c1a c8bc 464a 743c d5e4 e03d 4378 04be
000003a0: 6d3b 5c3d 93af 043e 0a26 e33c c1db ad3d
000003b0: 330f 983d d069 9e3d 1c36 adbd b9fa ddbd
000003c0: 5881 803d a98a a23d 95cc 3e3b 810f 8bbd
000003d0: a220 4c3d 55f6 b43d 0413 3a3b 6452 9d3c
000003e0: 31b3 19bd f186 25bd 9671 d9bd e6a1 df3d
000003f0: 001f 06bd 4469 0d3d d868 933d 1fc2 5abd

fc2.bias f4 [32]
-0.014452556 0.13281822 0.093767256 0.11884066 -0.02114152 0.100353174 -0.10512484 -0.07465932
-0.12022982 -0.030214272 0.012837177 -0.059561666 -0.007352893 -0.06385486 -0.010850409 -0.021305162
0.051254984 -0.028871857 -0.06109368 -0.084756725 -0.037628308 0.09287327 0.056717474 -0.0404063
-0.10869229 -0.042020146 -0.058011506 -0.013659936 0.032848507 -0.039727703 -0.0062440704 0.0062811277
00000000: 6aca 6cbc 8001 083e 0c09 c03d bb62 f33d
00000010: fb30 adbc f785 cd3d b14b d7bd fce6 98bd
00000020: 0d3b f6bd ec83 f7bc 0653 523c eff6 73bd
00000030: 89f0 f0bb 56c6 82bd eac5 31bc 2a88 aebc
00000040: bff0 513d ac84 ecbc 5e3d 7abd ef94 adbd
00000050: 2420 1abd 5734 be3d 9550 683d 1481 25bd
00000060: 109a debd 511d 2cbd 799d 6dbd edcd 5fbc
00000070: 288c 063d 84b9 22bd 0f9b ccbb ebd1 cd3b

policy_head.weight f4 [9, 32]
-0.15198922 0.16337453 0.06866373 0.0038769294 0.1610972 -0.01115565 0.041534547 -0.011797223
-0.054750614 -0.16346857 0.01682266 -0.09591803 0.13889071 0.10438927 0.061100688 0.016537262
0.16342501 0.12201676 0.10736404 0.10965481 -0.0063075908 -0.12163381 0.10565331 -0.1276024
0.041516185 -0.12270989 -0.14542583 0.16930725 -0.10480629 0.13540871 -0.027660368 0.121663034
-0.09097086 0.0016624447 -0.043821357 0.094832554 -0.08239554 -0.023184376 -0.1816661 0.0060451096
-0.08466435 0.14695302 0.08453396 -0.013546267 -0.1634965 -0.16832565 0.041680966 -0.072058484
0.09498174 0.054978568 0.16578996 0.05334371 0.053994734 -0.03635471 -0.054111622 0.051242158
0.07824339 -0.12662366 -0.1250637 -0.12539485 -0.005950343 -0.13845544 -0.06977516 0.1395233
0.15135211 -0.034468606 -0.13947137 -0.022148643 -0.17640722 -0.020825822 -0.1113892 -0.0025417227
-0.15499052 -0.13343377 -0.0050624455 -0.1056586 0.011037881 0.16657633 0.17356873 -0.019072928
0.15627111 -0.031008882 0.119014665 0.146634 0.13233796 -0.021670897 -0.08154069 0.14603326
-0.0028633028 -0.13315804 0.06619369 -0.08547923 0.032569036 -0.050663404 0.06822459 -0.039082013
0.08007975 0.15144858 -0.073940985 -0.008812471 -0.009556398 -0.02305504 -0.053382736 0.12010041
0.11941792 -0.08226872 -0.1711793 0.15007514 0.0036857845 0.0658885 0.10195507 -0.13179669
-0.15983346 0.14852053 -0.14897062 -0.10489658 -0.16881812 0.096748285 0.058180753 0.14309517
0.16597371 0.120767675 -0.17886418 -0.083234705 0.05187867 -0.07624631 -0.061628126 0.16750284
-0.07182231 0.031039327 -0.098001815 -0.0057307603 0.01535465 -0.14412615 -0.114652984 0.13460666
0.13918458 0.045707684 0.0994894 -0.09791073 -0.034038916 0.07830762 0.08223022 0.14799394
0.0045665014 -0.15196036 -0.04560856 -0.11205136 -0.071660616 -0.0022800034 0.08694434 -0.095173985
-0.016321242 -0.07360324 -0.13446015 0.116290174 0.022263432 -0.032474447 0.04988753 -0.054713994
-0.10709559 0.15977563 0.16033302 0.17217937 0.06446731 0.03858976 0.0039221877 0.033968017
0.06840873 -0.12786917 -0.16120395 -0.08043285 -0.026626369 -0.15712793 0.014790613 0.06525088
-0.11676869 -0.078896224 -0.03011127 -0.04149022 0.15892972 -0.0859142 -0.11311349 0.16509375
0.028299019 -0.1510124 0.08072101 0.1210081 0.03839945 0.15947504 -0.033903383 -0.043361705
-0.16569774 -0.12005136 0.1495291 -0.14950478 0.124502614 -0.1402485 -0.16560705 -0.006248125
0.10534182 0.02249816 -0.19158962 -0.15617591 -0.14393984 -0.077889904 0.103564024 0.00093252514
-0.009972566 0.053768445 -0.011278376 0.023961594 0.122799814 -0.0682049 -0.15190737 0.1570083
0.03533663 -0.15506 -0.12208498 -0.09354147 0.02069061 -0.06270044 0.13213067 0.12340952
0.114932 0.0500538 -0.14745295 0.119899675 -0.09446621 0.0345214 -0.10420556 0.14163376
-0.06487075 -0.14353777 -0.0005911309 0.04851934 -0.17813513 0.033977315 0.041913744 -0.13662238
-0.17823015 0.16091925 0.060598046 -0.03237573 -0.11967757 -0.038043484 0.17454907 0.07675289
0.06546046 -0.12119553 -0.048162848 0.026587553 0.052240428 -0.08486063 -0.01604656 0.0019185531
00000000: 10a3 1bbe a74b 273e 929f 8c3d 1514 7e3b
00000010: aaf6 243e 30c6 36bc 2120 2a3d 2449 41bc
00000020: 2e42 60bd 4e64 27be adcf 893c ac70 c4bd
00000030: 5e39 0e3e 0bca d53d b744 7a3d 2779 873c
00000040: e358 273e ece3 f93d aee1 db3d b392 e03d
00000050: e8af cebb 261b f9bd c360 d83d 34aa 02be
00000060: e00c 2a3d 534f fbbd 82ea 14be e15e 2d3e
00000070: aea4 d6bd 95a8 0a3e ff97 e2bc 782a f93d
00000080: ee4e babd 63e6 d93a 067e 33bd 9237 c23d
00000090: febe a8bd 29ed bdbc ae06 3abe 0e16 c63b
000000a0: 8164 adbd da7a 163e 2420 ad3d 29f1 5dbc
000000b0: a06b 27be 8f5d 2cbe a9b9 2a3d 6693 93bd
000000c0: c985 c23d 3531 613d d8c4 293e ef7e 5a3d
000000d0: 9529 5d3d ade8 14bd 26a4 5dbd 4ce3 513d
000000e0: 123e a03d a2a9 01be b310 00be 8267 00be
000000f0: 18fb c2bb 43c7 0dbe 47e6 8ebd 32df 0e3e
00000100: 0cfc 1a3e f42e 0dbd 95d1 0ebe 1271 b5bc
00000110: 18a4 34be ea9a aabc 0520 e4bd 0893 26bb
00000120: d6b5 1ebe dda2 08be dfe2 a5bb 8963 d8bd
00000130: 3ad8 343c fc92 2a3e 00bc 313e d43e 9cbc
00000140: 8905 203e 5706 febc f6bd f33d 3927 163e
00000150: 9a83 073e 2a87 b1bc cefe a6bd be89 153e
00000160: 40a6 3bbb 955a 08be 8f90 873d bc0f afbd
00000170: 1c67 053d 6e84 4fbd 55b9 8b3d 7614 20bd
00000180: da00 a43d 5615 1b3e 5f6e 97bd 2f62 10bc
00000190: 7092 1cbc ecdd bcbc dba7 5abd 34f7 f53d
000001a0: 6291 f43d 817c a8bd a049 2fbe 4cad 193e
000001b0: 348d 713b 8df0 863d d2cd d03d b6f5 06be
000001c0: 62ab 23be c415 183e c18b 18be 05d4 d6bd
000001d0: a8de 2cbe f723 c63d f14e 6e3d 8a87 123e
000001e0: 03f5 293e 0b55 f73d 2c28 37be f576 aabd
000001f0: ba7e 543d 0627 9cbd c66d 7cbd dd85 2b3e
00000200: 9317 93bd 3046 fe3c 2db5 c8bd 1ac9 bbbb
00000210: 1292 7b3c ce95 13be 2fcf eabd 54d6 093e
00000220: 6786 0e3e fb37 3b3d 19c1 cb3d 6c85 c8bd
00000230: 646c 0bbd bf5f a03d 5168 a83d b98b 173e
00000240: 97a2 953b 7f9b 1bbe 0bd0 3abd 2f7b e5bd
00000250: cdc2 92bd 1c6c 15bb e00f b23d 94ea c2bd
00000260: 20b4 85bc 4cbd 96bd ecaf 09be 8b29 ee3d
00000270: cd61 b63c ed03 05bd de56 4c3d c81b 60bd
00000280: ef54 dbbd 399c 233e 572e 243e ca4f 303e
00000290: 7007 843d 4c10 1e3d b285 803b 0c22 0b3d
000002a0: e019 8c3d 23f0 02be a612 25be fab9 a4bd
000002b0: 8b1f dabc 25e6 20be 5454 723c 41a2 853d
000002c0: 6c24 efbd 5894 a1bd e9ab f6bc a6f1 29bd
000002d0: 79be 223e c9f3 afbd 0ca8 e7bd 560e 293e
000002e0: 58d3 e73c ffa2 1abe 0f51 a53d 18d3 f73d
000002f0: be48 1d3d 6d4d 233e 46de 0abd 0b9c 31bd
00000300: abac 29be 7ddd f5bd 281e 193e c817 19be
00000310: 3afb fe3d 4e9d 0fbe e594 29be 12bd ccbb
00000320: 74bd d73d 104e b83c 1230 44be 94ec 1fbe
00000330: f764 13be be84 9fbd 6019 d43d b474 743a
00000340: f963 23bc 4d3c 5c3d f0c8 38bc 1b4b c43c
00000350: 787e fb3d 03af 8bbd 9b8d 1bbe c9c6 203e
00000360: 24bd 103d 0cc8 1ebe b107 fabd ac92 bfbd
00000370: 5b7f a93c 1769 80bd 434d 073e 21be fc3d
00000380: 7861 eb3d 3705 4d3d e8fd 16be f68d f53d
00000390: 8077 c1bd 5066 0d3d ba69 d5bd 7108 113e
000003a0: f5da 84bd 91fb 12be 20f6 1aba 37bc 463d
000003b0: 0e69 36be cc2b 0b3d bfad 2b3d bde6 0bbe
000003c0: f781 36be 04c8 243e a835 783d 6a9c 04bd
000003d0: 8419 f5bd 7cd3 1bbd febc 323e 9f30 9d3d
000003e0: 2210 863d 5d35 f8bd 6846 45bd 24ce d93c
000003f0: 0ffa 553d 69cb adbd 1374 83bc f677 fb3a

policy_head.bias f4 [9]
-0.096451834 0.037823517 0.13291408 0.026899397 -0.10947282 0.07266755 0.15774605 -0.10737425
-0.008778314
00000000: 8a88 c5bd d5ec 1a3d a11a 083e 205c dc3c
00000010: 4933 e0bd b9d2 943d 2e88 213e 08e7 dbbd
00000020: ebd2 0fbc

value_head.0.weight f4 [16, 32]
-0.04660543 -0.08281667 -0.14551856 -0.030938612 0.1510341 0.06325173 0.099073276 -0.14243984
0.07222966 -0.047161717 -0.07665915 0.1196831 -0.05874274 -0.005036417 0.0052902997 -0.033629414
0.16471173 -0.13362269 0.13451189 -0.02595443 -0.09408854 0.01741721 -0.102356054 0.09899904
-0.14511183 0.07007111 0.0500176 -0.16301377 0.07583354 0.10552715 0.04559074 0.08411547
0.17840163 0.12834594 0.08248567 -0.008103775 -0.021247532 -0.026043179 -0.03833847 0.10839111
-0.0028640307 0.10456818 -0.091138415 0.12556519 -0.03996273 0.10145778 -0.01161004 0.14330177
-0.057063125 0.1807897 0.1359784 -0.0661418 0.1590398 0.04418389 0.070532754 -0.029668296
-0.02245213 -0.090361945 -0.04857878 0.17367932 0.15608686 0.006578887 0.053616077 0.17992476
-0.108215466 -0.09293647 -0.09516626 -0.09932043 -0.013672993 0.1550222 -0.06102576 -0.06708893
-0.030654974 -0.15060286 -0.09716506 -0.05562275 -0.15448025 -0.08412361 0.0037465687 0.100174926
-0.07140505 -0.037936904 -0.0724126 -0.16404413 -0.007915041 -0.11631604 -0.16448297 0.11506692
0.054002717 -0.06346359 0.091816835 0.05402348 -0.10746328 0.17384422 -0.06523389 -0.006483346
-0.11150334 -0.14664511 0.10381721 0.07221705 0.08296416 -0.04643498 0.13000594 0.0494192
0.053007603 -0.10190143 -0.08200824 -0.11186682 0.004410252 -0.15855514 0.025832672 0.15485519
-0.17721671 0.11586347 0.054318503 -0.018531635 -0.050925713 -0.06642569 -0.022526387 -0.036755577
-0.06564582 -0.008465637 -0.1662789 -0.059490666 0.13365364 0.11918317 0.040139884 -0.14735846
0.08429266 0.09773628 -0.121555686 -0.1283796 -0.012558412 -0.12044329 -0.0034498528 0.0056629875
-0.028118195 -0.16876926 0.005126478 -0.0040164664 0.14874168 0.061795488 -0.09645856 -0.11719955
-0.16492781 -0.18496847 0.1596969 -0.08135355 0.027289659 0.13323884 -0.12492842 -0.10653857
0.12932919 0.0022081467 -0.03430089 0.04261085 -0.069896564 -0.04343974 0.12191346 0.09814014
0.038100164 -0.08223349 0.010806504 -0.10168199 0.15148321 -0.07368521 0.0183355 0.060474064
-0.13819112 -0.12061637 -0.036984123 -0.09878075 0.0044283043 0.015388549 -0.008769934 -0.06843136
0.04140438 -0.04565212 0.13390057 -0.05418504 0.06543139 0.022967324 -0.017988747 0.043615952
-0.15532154 0.007336233 0.12861986 0.07101482 -0.092939414 -0.10186487 -0.1376593 0.04458807
0.03515589 -0.17255774 0.15498976 0.008901415 0.0074807853 -0.13905615 -0.041217297 -0.18014808
-0.100212924 -0.068162955 0.13430807 0.08197691 0.07713623 -0.02491288 -0.006802933 0.12681308
0.092477076 0.1633058 -0.13430694 0.16116972 -0.109784245 0.044750083 -0.043376803 0.1507696
-0.054534182 -0.058050573 -0.032765906 0.081668116 -0.17487814 0.14365432 0.09114849 -0.013359914
0.059463132 -0.16119653 -0.107350424 0.08584002 -0.013124974 0.102627985 -0.0076756035 -0.03324076
-0.037345205 0.013265963 0.11553273 0.10661773 -0.023250671 0.13212231 0.12944233 -0.13602152
-0.022713266 -0.113400854 -0.06656881 -0.027594794 -0.061286315 0.09483969 0.04701517 0.14735068
-0.14570528 0.01943393 -0.16249648 0.07244166 -0.14427263 -0.05467359 0.0781489 0.085845426
00000000: 56e5 3ebd c99b a9bd d102 15be f972 fdbc
00000010: afa8 1a3e 1f8a 813d eee6 ca3d c0db 11be
00000020: 25ed 933d a52c 41bd 79ff 9cbd 6a1c f53d
00000030: 3a9c 70bd 8708 a5bb 405a ad3b ffbe 09bd
00000040: 31aa 283e 63d4 08be 7cbd 093e 639e d4bc
00000050: 7eb1 c0bd 89ae 8e3c 0da0 d1bd 02c0 ca3d
00000060: 3298 14be 7181 8f3d 41df 4c3d 15ed 26be
00000070: 9d4e 9b3d 9e1e d83d 5bbd 3a3d bb44 ac3d
00000080: ebae 363e 1e6d 033e 3fee a83d b2c5 04bc
00000090: 4e0f aebc 8158 d5bc cd08 1dbd 29fc dd3d
000000a0: 76b2 3bbb d827 d63d c7a6 babd 2994 003e
000000b0: f6af 23bd 19c9 cf3d 0a38 3ebc b3bd 123e
000000c0: 06bb 69bd ef20 393e ec3d 0b3e 5a75 87bd
000000d0: 54db 223e 2bfa 343d 7a73 903d ed0a f3bc
000000e0: 88ed b7bc af0f b9bd 8bfa 46bd fed8 313e
000000f0: 3cd5 1f3e b493 d73b 889c 5b3d 323e 383e
00000100: 12a0 ddbd 7a55 bebd 87e6 c2bd 8268 cbbd
00000110: b004 60bc 24be 1e3e 26f6 79bd ec65 89bd
00000120: 2420 fbbc a337 1abe 7afe c6bd aed4 63bd
00000130: 1230 1ebe 0049 acbd fe88 753b 8328 cd3d
00000140: d03c 92bd ba63 1bbd 0f4d 94bd 2ffb 27be
00000150: 17ae 01bc 1b37 eebd 396e 28be 35a8 eb3d
00000160: f431 5d3d 33f9 81bd 770a bc3d b947 5d3d
00000170: b515 dcbd 3804 323e 5999 85bd 4072 d4bb
00000180: dd5b e4bd 232a 16be 1e9e d43d 88e6 933d
00000190: 1de9 a93d 9b32 3ebd 4720 053e c96b 4a3d
000001a0: 801e 593d b2b1 d0bd f0f3 a7bd 6e1a e5bd
000001b0: e083 903b 475c 22be 0a9f d33c 5c92 1e3e
000001c0: 4c78 35be d449 ed3d 147d 5e3d a8cf 97bc
000001d0: 7b97 50bd 310a 88bd 4289 b8bc 048d 16bd
000001e0: 5171 86bd 75b3 0abc 0445 2abe 7cac 73bd
000001f0: 80dc 083e 4e16 f43d b869 243d 23e5 16be
00000200: a1a1 ac3d f529 c83d 30f2 f8bd f175 03be
00000210: ccc1 4dbc f9aa f6bd ed16 62bb 9590 b93b
00000220: 2158 e6bc d9d1 2cbe 04fc a73b 909c 83bb
00000230: bd4f 183e 441d 7d3d 118c c5bd 5106 f0bd
00000240: d6e2 28be 6068 3dbe 9687 233e b19c a6bd
00000250: 908e df3c c36f 083e 79da ffbd e530 dabd
00000260: df6e 043e 8eb6 103b 177f 0cbd b788 2e3d
00000270: ee25 8fbd deed 31bd c4ad f93d b3fd c83d
00000280: eb0e 1c3d 086a a8bd c30d 313c a63e d0bd
00000290: 6a1e 1b3e 45e8 96bd 5534 963c a7b3 773d
000002a0: f981 0dbe b705 f7bd aa7c 17bd 904d cabd
000002b0: 4f1b 913b 4120 7c3c c5af 0fbc be25 8cbd
000002c0: a497 293d b8fd 3abd 3b1d 093e 22f1 5dbd
000002d0: e500 863d f825 bc3c 235d 93bc a4a6 323d
000002e0: 9c0c 1fbe c864 f03b edb4 033e 3870 913d
000002f0: 0557 bebd 879e d0bd 8ff6 0cbe fba1 363d
00000300: 9fff 0f3d fab2 30be a3b5 1e3e 3ed7 113c
00000310: 6021 f53b bc64 0ebe 78d3 28bd bd78 38be
00000320: 6f3c cdbd 0599 8bbd 0e88 093e 83e3 a73d
00000330: 9af9 9d3d 1916 ccbc 23eb debb 4adb 013e
00000340: 9f64 bd3d a339 273e c287 09be ad09 253e
00000350: 90d6 e0bd dd4b 373d e0ab 31bd 5963 1a3e
00000360: 3c5f 5fbd 70c6 6dbd 8b35 06bd 9d41 a73d
00000370: 4113 33be 1e1a 133e 0fac ba3d 8ae3 5abc
00000380: 9d8f 733d b410 25be 8ada dbbd e4cc af3d
00000390: 220a 57bc 9f2e d23d a183 fbbb 7727 08bd
000003a0: 49f7 18bd 7b59 593c 6d9c ec3d 655a da3d
000003b0: 3178 bebc 124b 073e 888c 043e 3a49 0bbe
000003c0: 2c11 babc b53e e8bd 3a55 88bd 7a0e e2bc
000003d0: 5c07 7bbd 503b c23d fb92 403d 19e3 163e
000003e0: c433 15be e833 9f3c 7a65 26be 4b5c 943d
000003f0: 34bc 13be 6af1 5fbd 880c a03d bacf af3d

value_head.0.bias f4 [16]
-0.031864613 0.127665 0.000581571 -0.0308648 0.02847415 0.0009824948 -0.099178895 0.09854709
0.069696 -0.11817197 -0.05432217 0.17588192 -0.13652828 -0.08482521 -0.0045654923 -0.069918334
00000000: 7884 02bd 9dba 023e 9274 183a 2dd8 fcbc
00000010: 9f42 e93c 0ec7 803a 4e1e cbbd 0fd3 c93d
00000020: c7bc 8e3d 2504 f2bd ec80 5ebd 641a 343e
00000030: 12ce 0bbe d7b8 adbd 209a 95bb 5831 8fbd

value_head.2.weight f4 [1, 16]
0.14879431 -0.19874561 -0.1865531 0.015493279 0.2168399 0.07057543 0.09158692 0.21333292
-0.061560303 0.15461466 0.022697221 -0.24212877 -0.15610838 -0.22316217 -0.21115291 0.105774105
00000000: 895d 183e f883 4bbe c707 3fbe 86d7 7d3c
00000010: 470b 5e3e da89 903d ec91 bb3d f273 5a3e
00000020: a826 7cbd 4e53 1e3e 86ef b93c 9bf0 77be
00000030: e0da 1fbe a084 64be 7838 58be 18a0 d83d
